codes/runs_taskA/time_mlp/best.pt (torch, 230778 bytes, 18 tensors)

net.0.weight f4 [128, 1]
00000000: 9f5a 0580 d35a 3d3e 4c59 0500 73eb 2c3f
00000010: 3da0 8b3f 981a b5b5 b37c 4f3f 6877 3fab
00000020: 2ea6 343f 5363 0500 e615 da3e ae84 57b7
00000030: 5066 483f 1d2f 023e 16ad f7be df29 723e
00000040: 1347 f8be fd02 1333 3732 b2be ecb1 413f
00000050: 2063 0500 a311 47bb 1906 a6be 7e89 84b6
00000060: 7bfe 5c3d b307 75bf 407b 5d3f 391c 8ea7
00000070: 2201 353f 19c2 1c3e eec6 75be 339c f097
00000080: dcb5 fb3d 9baf 4c3f eaf7 94b2 8082 a4be
00000090: e853 473e 1f99 2ca0 a615 beb9 984b 373f
000000a0: 556e 063f 8460 0580 5c4a 4b3f 16a5 57b3
000000b0: 2c5e 0580 1078 f8be 23ca 63bf c3a6 a19e
000000c0: b92d 20bf 5a41 393f a996 6b3e 8cde 0e3f
000000d0: eede 983e 75cc c6bd 2d2b 3a3f 51c4 13bd
000000e0: cb67 97ac 5cb5 25bf b829 b43e c373 09b0
000000f0: dbbd 883e 1bca 80be fc92 473f 5247 44b4
00000100: 4a4f 05bf 569c 36c0 2f3c 543f 5aac 953e
00000110: fbbb 913f 062c 23b8 a0e3 6cbf 23a6 0dbf
00000120: 8715 68bf 7eee d5b8 ef44 3cb9 18c3 c4ba
00000130: 9222 34b7 66c9 f9be c424 023f 2230 d7be
00000140: 32ab 2da8 d332 f694 7a66 1b3f 4cf3 4cbf
00000150: d2d5 99be 859b cf3e 5178 193e 81fd 90b5
00000160: 394d ab9b 2604 243f c980 2cb6 6ce5 0cab
00000170: 67b4 08bb d9fa bebe 67b0 d6be b146 56bf
00000180: 8630 c29d eec1 0480 5359 888b 1e68 3cbf
00000190: 52df 3c39 2ebc 30bf b105 29bf a388 c8be
000001a0: a11f 4ec0 b703 e1b9 6d27 913f d910 b814
000001b0: f137 8f3e b8be 0dba 2e7a 24bc 152e cab2
000001c0: fc8e 2ebb fc68 0200 88b1 d8b9 0f7b ecbe
000001d0: 725c 0580 ee82 c4be 70ec bf0b 92b2 16ba
000001e0: 00cb 3fbc 1951 df8d 7d43 af2e d721 12a9
000001f0: 9b06 4c3f ae76 e5b7 8c1e 4d3f 6b15 8a3e
-4.91686e-40 0.18491678 4.91211e-40 0.67546767 1.0908276 -1.3493291e-06 0.8104965 -6.802254e-13
0.7056607 4.94808e-40 0.42594832 -1.28458905e-05 0.78281116 0.12713285 -0.48374242 0.23648785
-0.48491725 3.4228822e-08 -0.34803936 0.7566211 4.94737e-40 -0.0030375503 -0.32426527 -3.9499128e-06
0.05395363 -0.95714873 0.8651619 -3.9443516e-15 0.70704854 0.15308417 -0.24001667 -1.5549067e-24
0.12290546 0.7995545 -1.7342206e-08 -0.32130814 0.19465601 -1.461963e-19 -0.00036255753 0.7159972
0.52512103 -4.93801e-40 0.7941034 -5.0208733e-08 -4.9296e-40 -0.485291 -0.8898031 -1.7115509e-20
-0.6256977 0.72365344 0.23006691 0.5580833 0.29857582 -0.09706966 0.7272213 -0.036075894
-4.3032015e-12 -0.6472986 0.3518808 -5.0004817e-10 0.26707348 -0.25154194 0.77958655 -1.8279869e-07
-0.5207411 -2.853292 0.8290433 0.29233056 1.1385492 -3.890323e-05 -0.9253483 -0.5533163
-0.9065785 -0.00010201054 -0.00017954757 -0.0015011756 -1.0736885e-05 -0.48786467 0.5083735 -0.4202891
-9.640551e-15 -2.4859699e-26 0.6070324 -0.8005874 -0.30045944 0.4054834 0.14987303 -1.0802615e-06
-2.833948e-22 0.6406883 -2.570496e-06 -5.005638e-13 -0.0020859481 -0.37300757 -0.4193146 -0.83701617
-5.1401544e-21 -4.36911e-40 -5.2519695e-32 -0.7359637 0.0001801227 -0.6903714 -0.6602431 -0.39166746
-3.2206805 -0.00042918112 1.1340157 1.8585897e-26 0.27972367 -0.00054071425 -0.0100388955 -2.353685e-08
-0.0026635518 2.21332e-40 -0.00041331002 -0.46187636 -4.9234e-40 -0.3838114 7.3926275e-32 -0.0005748655
-0.011706114 -1.376296e-30 7.970067e-11 -3.2447864e-14 0.7969758 -2.7354192e-05 0.80124736 0.26969466

net.0.bias f4 [128]
00000000: 13fd 869b 0f93 373f 4fa8 8798 6903 cdbe
00000010: d67b 45bf 1cd1 66ba 87f4 8b3e 9bf0 a2b4
00000020: cdd9 ce3e 96cb 8b90 1997 3c3f df02 84b9
00000030: de75 47be fb35 6f3e 01c5 0f3f 51ad 553f
00000040: ba75 6f3f faba d2b3 d0cd b23e 3027 e2be
00000050: a8fb 0c98 548f 16bc 10cc 6a3f dc0a beba
00000060: e7ff 0a3f 2587 c43e 8a8c ac3e 56a5 1fb5
00000070: c189 663f 6c74 7f3e cb90 763e 5786 adb2
00000080: 7cae de3e 5d85 33be 06e9 f5b8 64b9 653f
00000090: 8a9e 453e 23d6 6cb3 b73d 84ba 9e2f 2cbe
000000a0: ef7c 0f3f 6f95 bd91 9108 f4be 3f7e 5db9
000000b0: 4c99 1ca5 a93d f93e 4b5c 643f 11b4 0ca2
000000c0: b5f6 b63e 72bc f53e 1127 233e 8992 a9be
000000d0: 44aa 0c3f c578 ff3e 03df bd3e 716d 0abd
000000e0: 355f 0ab4 de03 833e 29b8 54be e8f2 a6b7
000000f0: 365c 253f 7579 5b3f 3f64 34be 6afc f5b9
00000100: 1aba 523e c97f 2c3e 3dc1 723e 7342 903e
00000110: 940a 6fbf 8e46 95ba bc8d 6d3f 3614 0e3f
00000120: 4ece 2a3e 0df0 5fbb ef0e c5ba b345 f4bb
00000130: d4c5 85ba c178 fa3e 0c66 2a3f b0c0 013f
00000140: 60d2 01a8 c220 93aa 9bbd 41be 3d87 7e3f
00000150: 7353 9a3e 60f9 b1be d720 cd3e 8145 1db5
00000160: 3ee1 88af f88f 3d3f a9de 64ba 1bdc e5b5
00000170: 1ece 21bc af29 2f3f c2b5 3f3f 6252 f33e
00000180: bd68 b7b2 90c0 948c 85fe e0a3 6783 4b3f
00000190: 0486 013f f190 623f b08d 293f 5b23 c93e
000001a0: cafc 603e 0333 e3bb ada1 74bf 14ad 2d95
000001b0: 5073 db3e 2254 71bb 6471 d8bc 7123 acb9
000001c0: c76c 49bc e4f0 e1a0 5890 77bb 7c43 ed3e
000001d0: 5ce0 9791 d506 283f 07ff 0a8d 621e 6fbb
000001e0: 3142 c4bc 6304 389c 1538 beae d729 84b3
000001f0: 67ec 123f 0f28 bbba db1e 003f 9d83 ea3e
-2.2331986e-22 0.7170877 -3.506663e-24 -0.40041664 -0.77142084 -0.00088049634 0.27334997 -3.0349915e-07
0.40400544 -5.5139507e-29 0.73668057 -0.0002517914 -0.19478557 0.23360436 0.5615998 0.83467585
0.9353901 -9.812898e-08 0.34922647 -0.44170523 -1.822163e-24 -0.0091894455 0.91717625 -0.0014499086
0.54296726 0.38384357 0.33700973 -5.947271e-07 0.90053946 0.24946755 0.24078672 -2.0200941e-08
0.43492496 -0.17531343 -0.000117259144 0.8973601 0.19298759 -5.5142788e-08 -0.0010089193 -0.1681504
0.5605001 -2.9911038e-28 -0.47662786 -0.00021123233 -1.3582782e-16 0.48679855 0.8920333 -1.9068864e-18
0.35735098 0.47995335 0.15932871 -0.3311961 0.54947305 0.49896827 0.37084207 -0.033795778
-1.2886888e-07 0.25588888 -0.20773377 -1.9901854e-05 0.6459383 0.85732204 -0.17616366 -0.00046918105
0.20578805 0.16845621 0.23706527 0.28175697 -0.93375516 -0.0011388825 0.92794394 0.5549959
0.16680261 -0.003417018 -0.0015034358 -0.007454598 -0.0010206052 0.48920253 0.6656196 0.5068464
-7.206556e-15 -2.6135176e-13 -0.18919985 0.9942511 0.30141792 -0.3476057 0.40064117 -5.85882e-07
-2.48983e-10 0.74047804 -0.0008730689 -1.7125889e-06 -0.009875802 0.6842298 0.74886715 0.4752379
-2.1351633e-08 -2.2918905e-31 -2.4393922e-17 0.7949738 0.50595117 0.88502413 0.6623182 0.39284787
0.21971431 -0.0069335713 -0.955592 -3.5073606e-26 0.42861414 -0.0036823829 -0.026421256 -0.00032832802
-0.012294001 -3.827589e-19 -0.0037775245 0.4634055 -2.3961871e-28 0.65635425 -4.283151e-31 -0.0036486615
-0.023957344 -6.0886163e-22 -8.650162e-11 -6.1543396e-08 0.5739197 -0.0014278906 0.5004708 0.45803538

net.2.weight f4 [128, 128]
00000000: 5b83 0500 1b53 d1a7 1a69 0500 109b 0580
00000010: 2e84 0500 7570 0500 99d5 8f9d a75c 0600
00000020: 9370 9aa2 4c82 0580 2014 8caa 2568 0580
00000030: bb67 0580 3163 0500 ef0d 8089 7e2a 3aab
00000040: 47d5 b9a7 add9 0500 155f 0580 517e 0580
00000050: 02a5 0500 c0a5 0500 e994 c8a8 3090 0580
00000060: 0134 159e f1a8 0600 b23d 07a2 ed6a 0580
00000070: 6c7f 0caf c85b 0580 135a 0500 0194 0580
00000080: f715 7b96 a158 0500 f955 0600 3837 1ea8
00000090: 105b 0500 0f70 0680 88b3 0580 476a 0500
000000a0: 50a8 98a6 62a4 0500 f370 0580 8d82 0500
000000b0: 8957 0500 1fca 0280 c250 fd9f db57 0600
000000c0: e162 0580 9d8c 63a6 0f61 0500 f671 0580
000000d0: a2bf e1a2 5138 bd95 5778 afa1 84bf 0600
000000e0: ea89 0580 f173 0580 9ee6 0500 83bf 0580
000000f0: 695a 82a6 51bb b9a7 7a67 0580 ccaf 0500
00000100: ba5e 0500 1bb8 0600 07f1 089b 9cd2 1b89
00000110: bae5 0580 71b9 0580 c51d 54a1 7c07 5905
00000120: 7786 0500 1b8f 0580 7b84 0680 d993 0500
00000130: b0ad 0500 c4b0 0180 db4a 59a9 acd1 a505
00000140: c26d 0680 e683 0500 046e 0580 98c0 39a6
00000150: 4261 0500 9d9f 0500 1246 c293 b1c0 0680
00000160: 8c8b 0500 9187 27ac 7541 0600 899d 0580
00000170: 2093 0500 af05 f89d 32e0 19a1 845f 0500
00000180: 148a 0580 cfa0 0580 2b76 0580 740a 2d9d
00000190: 4de6 d099 b4ea 3ea3 483c 2690 9462 0500
000001a0: c5ca 0580 fcd4 0580 346b 0680 ee5a 0580
000001b0: 25c1 259b b494 0680 a37a 0580 4c5f 0580
000001c0: e35b 0580 025c 0600 c259 0500 2661 0580
000001d0: fb16 0680 ee81 839b bf63 0500 9283 0500
000001e0: 02a1 0580 607f 0500 5e64 0500 596e 0500
000001f0: db24 9da9 426d 0580 fa91 b4a7 d7b4 279d
00000200: 74cd 0500 9871 79b3 6110 0600 4459 0580
00000210: 2e5b 0580 1f7e 0500 fd0d 08b1 1064 0580
00000220: bb8b 1cb2 dc82 0500 7eb7 9bb4 67a9 0500
00000230: e4c1 da0d 8226 daa3 08c2 a1a8 445b c3b4
00000240: 0ccc 0ab3 5b7c 0500 99f6 c494 715c 0500
00000250: 950a 0680 ad92 0580 56ec 96b3 34a4 0580
00000260: 2ac0 ffaf 2162 0500 ca4b 15b2 9493 0500
00000270: 5e2b 6cb6 7810 91a5 4b63 0500 c8a3 0580
00000280: 3839 d4ad afbd 4e18 3d94 0580 7410 39b3
00000290: 05d1 87a4 4b49 0680 5eba 0500 91a7 221f
000002a0: c60d 4bb3 b7c4 0500 a163 0500 fb09 0680
000002b0: 958b 0580 0294 cea1 1282 f0ae 5f58 0580
000002c0: 4157 0500 a1da 80b3 57ae e7a2 5065 0580
000002d0: 3a5d c1b1 8667 4cad be9a 0ab2 1184 0580
000002e0: c265 0580 8862 0580 ce5f 0500 fa66 0500
000002f0: ae5a 0fb3 4390 2db3 1e2a bd19 2676 0580
00000300: ec57 0580 ef58 0580 bb66 4eb0 f0fb 81ab
00000310: 9c66 0500 eeb1 0680 e2bc 88af 4f1e 85a5
00000320: 3c60 0500 7390 0680 9e98 0680 439c 0680
00000330: 4c59 0500 6df5 f2a1 2909 26b4 6fc1 07a7
00000340: cf81 0580 ed6c 0600 d35e 0580 fda5 18b2
00000350: b789 888b f26f 0500 c391 82ad c866 0580
00000360: 3fe0 0500 c599 4eb5 a8b9 0500 8d6f 0580
00000370: a279 0500 720e 3aaf a7eb 72b0 6c19 598e
00000380: 3ead 0580 9675 0580 fa8e 0580 79cd 2aae
00000390: 9906 99ae d2e9 ddb0 0540 a4a9 20c1 1f9a
000003a0: c15a 0500 d3c0 0500 d662 0500 4cb9 0600
000003b0: cda3 7aaf 92b4 0600 1caa 0600 a6b9 0500
000003c0: f5a7 0580 c465 0500 a487 0680 fc4d 3ea0
000003d0: ab7a 0580 8cd0 44ae 1587 0500 378c 0580
000003e0: afc4 0500 2f6b 0580 f7ce 0680 1c7d 0500
000003f0: 3455 75b4 046c 0580 ae29 dab3 20fa 05b0
5.06299e-40 -5.8099256e-15 4.96881e-40 -5.14803e-40 5.06595e-40 4.9952e-40 -3.807264e-21 5.8425e-40
-4.1860976e-18 -5.05919e-40 -2.488296e-13 -4.96537e-40 -4.96389e-40 4.9476e-40 -3.0827982e-33 -6.6139444e-13
-5.157905e-15 5.37265e-40 -4.93286e-40 -5.04491e-40 5.18371e-40 5.18637e-40 -2.226904e-14 -5.10902e-40
-7.8987485e-21 6.11618e-40 -1.8328573e-18 -4.97535e-40 -1.2778195e-10 -4.92102e-40 4.9149e-40 -5.12271e-40
-2.028255e-25 4.90972e-40 5.81854e-40 -8.7827356e-15 4.91845e-40 -5.91212e-40 -5.23581e-40 4.97303e-40
-1.059274e-15 5.18147e-40 -4.99696e-40 5.0601e-40 4.90579e-40 -2.56178e-40 -1.0728327e-19 5.8253e-40
-4.94649e-40 -7.894701e-16 4.93996e-40 -5.00059e-40 -6.118927e-18 -7.6425344e-26 -1.1890315e-18 6.19716e-40
-5.08652e-40 -5.0077e-40 5.41907e-40 -5.27879e-40 -9.045068e-16 -5.1550904e-15 -4.96298e-40 5.22242e-40
4.93159e-40 6.17058e-40 -1.1327536e-22 -1.8756474e-33 -5.41588e-40 -5.25701e-40 -7.1867794e-19 1.02046656e-35
5.07414e-40 -5.10514e-40 -5.98538e-40 5.12215e-40 5.21485e-40 -1.55247e-40 -4.8248606e-14 1.5593547e-35
-5.90387e-40 5.06494e-40 -4.98644e-40 -6.444578e-16 4.94067e-40 5.16436e-40 -4.904158e-27 -6.20138e-40
5.09237e-40 -2.3807382e-12 5.74495e-40 -5.1569e-40 5.11956e-40 -6.565093e-21 -5.2135136e-19 4.93442e-40
-5.0871e-40 -5.16865e-40 -5.01568e-40 -2.2901763e-21 -2.1599714e-23 -1.0349621e-17 -3.2784167e-29 4.9454e-40
-5.31917e-40 -5.35582e-40 -5.8947e-40 -4.91797e-40 -1.3710888e-22 -6.04358e-40 -5.03171e-40 -4.93364e-40
-4.9214e-40 5.84019e-40 4.91377e-40 -4.94028e-40 -5.59257e-40 -2.1756097e-22 4.9496e-40 5.06376e-40
-5.16936e-40 5.04871e-40 4.95182e-40 4.98763e-40 -6.978594e-14 -4.98372e-40 -5.0118304e-15 -2.2195758e-21
5.3288e-40 -5.8078143e-08 5.56889e-40 -4.912e-40 -4.91887e-40 5.04421e-40 -1.9798556e-09 -4.95073e-40
-9.112166e-09 5.06121e-40 -2.9004508e-07 5.19948e-40 1.3481965e-30 -2.3651916e-17 -1.7958738e-14 -3.6387985e-07
-3.231621e-08 5.03788e-40 -1.9888208e-26 4.92339e-40 -5.54809e-40 -5.11795e-40 -7.0279086e-08 -5.18082e-40
-4.652077e-10 4.9438e-40 -8.690174e-09 5.12119e-40 -3.5191983e-06 -2.516465e-16 4.94797e-40 -5.17931e-40
-2.412702e-11 2.6720642e-24 -5.12355e-40 -4.3088633e-08 -5.890101e-17 -5.77306e-40 5.26033e-40 3.4443442e-20
-4.7277148e-08 5.29745e-40 4.94918e-40 -5.54593e-40 -5.0925e-40 -1.399828e-18 -1.09370416e-10 -4.90879e-40
4.90478e-40 -6.000233e-08 -6.2797265e-18 -4.95522e-40 -5.627638e-09 -1.1619044e-11 -8.0678415e-09 -5.06554e-40
-4.95681e-40 -4.94524e-40 4.93546e-40 4.96119e-40 -3.3377255e-08 -4.0410907e-08 1.9559153e-23 -5.01561e-40
-4.90718e-40 -4.91081e-40 -7.508835e-10 -9.235928e-13 4.95987e-40 -6.14842e-40 -2.4872465e-10 -2.309236e-16
4.937e-40 -6.02832e-40 -6.05762e-40 -6.07069e-40 4.91211e-40 -1.6463522e-18 -1.5463287e-07 -1.8839874e-15
-5.05744e-40 5.90088e-40 -4.93194e-40 -8.885306e-09 -5.2592505e-32 4.99336e-40 -1.484402e-11 -4.96048e-40
5.39622e-40 -7.6964744e-07 5.25778e-40 -4.99194e-40 5.02811e-40 -1.6921733e-10 -8.837397e-10 -2.6759555e-30
-5.21325e-40 -5.0136e-40 -5.10468e-40 -3.883602e-11 -6.9588064e-11 -1.6146322e-09 -7.2941687e-14 -3.3036434e-23
4.91734e-40 5.2835e-40 4.94633e-40 6.17485e-40 -2.2795561e-10 6.1579e-40 6.12037e-40 5.25776e-40
-5.19429e-40 4.95684e-40 -5.99672e-40 -1.6119429e-19 -5.03182e-40 -4.4750467e-11 5.07636e-40 -5.09477e-40
5.29734e-40 -4.97628e-40 -6.25258e-40 5.04058e-40 -2.28484e-07 -4.97926e-40 -1.01589976e-07 -4.8740567e-10

net.2.bias f4 [128]
00000000: 82bb afac bd53 29b5 3154 103e 0d58 33ba
00000010: 8f21 b33d 4e67 083e 134e 013d 1a4b a73b
00000020: 973e 13b4 1543 34b9 deef 963c 9e4d 9cbc
00000030: 7925 8eab 5081 d0b7 c149 303b 1d51 c1bc
00000040: e170 823d 072e 8fb9 cfe3 8e3d 966e b83d
00000050: e45c 9c3d b1a7 513d 0581 6187 3885 153e
00000060: b8b6 2a3d 3661 6db5 a3d7 a19d 7972 f32a
00000070: 80a4 2225 3253 61b9 7433 ac3c a545 64b7
00000080: 5ab7 83af 719f 12bc 0b0a 0e3e 58bf 463d
00000090: 64ae f23c 5837 9a39 6b30 0b3e c261 fb3d
000000a0: 120b 6eab 1701 e93d c1c2 9f3d 2e4a 929f
000000b0: ec26 fd3d 1696 82ba 5634 0bbb 3f7f 853d
000000c0: 3e5b 9c3d 5bef 9f3b 18b0 6aba b122 db90
000000d0: 25a7 8037 16cc cdb0 d047 863d 5399 bf3d
000000e0: 9195 36bc b404 0abb d413 38b8 7ee9 a7b8
000000f0: 8ce1 81b2 51fe 89b9 8a40 683c 34c5 1d3c
00000100: 4b3b 4c3d 9b81 d13c 071a 07bc 961a 42bc
00000110: adee c1bb e3cd 65b2 9933 013e 64a4 6eb8
00000120: 86e5 9fba 4fb9 4e3c 9bf6 853d 632d 1fad
00000130: c47f 8c05 ed93 8e3d 1bcb 0ebc 7070 03a3
00000140: b1b3 d03d c1f1 a03d 5d12 1c08 484a c4bb
00000150: 4f20 1bba 9733 68b7 18cb 703d f9f9 b1b3
00000160: a015 6c3d 8990 dfb6 e60e 02ad fad6 96ba
00000170: 1ca6 4bb7 6f84 053e be3a 94b4 4d48 77b1
00000180: ec31 80bc d711 f33a 21d2 083e eab7 8bbc
00000190: 8dc2 ba3d e8fa 8ebc af20 ed8d 6dc0 353a
000001a0: 3291 f2bd 8885 e3b0 911b df3c 77f0 963c
000001b0: 3f26 d03d a9a5 f6aa ae8f 95bc 47a3 caa6
000001c0: 3b65 113d 1ab8 a4bb caa7 85ba 9d50 f29d
000001d0: d226 3abc 3806 be3d 4575 5db8 4cb2 8d3c
000001e0: df1a c2a4 badc e4ac e328 7d9e c068 253d
000001f0: 3da4 4c90 5c83 f63d 0067 85bb 3552 cc3d
-4.9946167e-12 -6.307926e-07 0.14094616 -0.00068414287 0.08746635 0.13320658 0.031568598 0.0051053884
-1.3713212e-07 -0.00017191128 0.018424924 -0.01907998 -1.0100108e-12 -2.4855748e-05 0.002689943 -0.023598248
0.06369186 -0.00027309378 0.06977045 0.090054676 0.07634905 0.051185314 -1.6965034e-34 0.146016
0.04167816 -8.843084e-07 -4.283931e-21 4.3244903e-13 1.4106995e-16 -0.00021488665 0.021020629 -1.3606074e-05
-2.395904e-10 -0.008949147 0.13871019 0.048522323 0.029624172 0.00029414403 0.13592689 0.12274505
-8.456995e-13 0.11377161 0.07800818 -6.1956125e-20 0.123609394 -0.0009962942 -0.0021240911 0.06518411
0.076345906 0.0048808283 -0.00089526316 -8.643372e-29 1.5336622e-05 -1.4973718e-09 0.06556666 0.09355416
-0.011144058 -0.0021059932 -4.3887485e-05 -8.006672e-05 -1.5120143e-08 -0.00026320157 0.014175544 0.009629536
0.049861234 0.025574496 -0.0082459515 -0.011847159 -0.005918345 -1.3376368e-08 0.12617339 -5.6896723e-05
-0.0012199141 0.012617423 0.06541177 -9.0481815e-12 1.321247e-35 0.06961808 -0.008715416 -7.125334e-18
0.101905234 0.07858611 4.696613e-34 -0.0059903003 -0.0005917595 -1.3840289e-05 0.058787435 -8.2876745e-08
0.05763781 -6.662744e-06 -7.392953e-12 -0.001150816 -1.2138418e-05 0.130388 -2.760989e-07 -3.5984329e-09
-0.015648805 0.0018544745 0.13361408 -0.01705547 0.09119139 -0.017453626 -1.4614121e-30 0.0006933276
-0.118441 -1.6554376e-09 0.027234824 0.01842521 0.10163545 -4.3813328e-13 -0.018256988 -1.4060822e-15
0.03549693 -0.0050268294 -0.00101971 -6.414022e-21 -0.011361795 0.0927853 -5.279972e-05 0.017296933
-8.417961e-17 -6.5046553e-12 -1.3402164e-20 0.0403831 -4.035843e-29 0.120367736 -0.0040711164 0.09976617

net.4.weight f4 [15, 128]
00000000: 14bd 133b d0d8 30bb 8129 d4bc 7a96 993b
00000010: 2b28 eebc a3e7 f63c fce9 efbd dc60 143e
00000020: b022 8234 f263 6d39 ff85 593e a0ae cbbd
00000030: 7fa9 a0b8 43b9 c43a 54ce a0b6 11ec 643c
00000040: a782 113e 7e51 2f3b db12 80bd bcf6 313e
00000050: 9ab2 493e 2a3c 403d c363 0500 77df fb3c
00000060: 6c81 043f 3928 b33a e200 31b8 905f 0580
00000070: 9e63 0580 8c7c c6ba 03ab e1be ff78 7cb9
00000080: 121f 241c 9a94 423d ed7a 1f3e 75a1 ce3e
00000090: 0f17 0fbd cbb7 7eba df2b ad3d 2df6 4b3e
000000a0: 471f 3890 9abf 483d 149a 3d3e 775e 0500
000000b0: 0f0f 713d a9c7 43bb ac6d a43b c91b 6d3e
000000c0: 419e 1c3e 6b2e 00be 19d8 2eb9 1506 8935
000000d0: dd01 db37 d6c4 b138 d1a0 1e3e 9a58 363e
000000e0: 1891 103d 341c 23bc 8181 a5bc 155a 4fbc
000000f0: 97d2 9b3a 01ab 8438 7e0f f5be b6d8 ad3c
00000100: c957 323e b60e 663e a3c1 6cbb aa6f 323e
00000110: ae41 f73b e00e 70b6 34bc 573e f407 be3c
00000120: ecff f5b7 1dbb 093e 8a53 423e 2962 13b9
00000130: 0d59 0580 3211 eebd 7f63 143c 734f 2a34
00000140: d575 323e 1fea d73d 6af5 0a31 546e 343b
00000150: 529b d5bb dd64 37b4 ea5b c3bc d8ab b5b2
00000160: c13e 6a3e 79a0 a63b 3b5f 0500 1125 cb3a
00000170: 2fbd 7736 96ef bebd ea72 1735 e0b9 55af
00000180: b79c 0cbd ddb3 1332 8fe4 c3bd bab1 873b
00000190: c53a 77bd 88fb 1a3c d2a7 5035 90f9 33ba
000001a0: 84a7 b0bf b984 e8ae 927b 7a3e 33b3 0ebc
000001b0: f6ab d8bd 8761 0500 f9c7 793e e2f9 2ba8
000001c0: 1da4 8bbb 8671 8837 10b9 b039 8316 1135
000001d0: 67f3 8c3a 155a 9bbc 60ae 8cb6 63fa 833e
000001e0: 7568 0500 400f 1338 ec58 0580 5d77 33bd
000001f0: cc5c 0500 bf50 8d3e a218 b93c 3747 8dbd
00000200: ece7 0580 09c4 0580 7067 e737 cc65 0500
00000210: 86c6 3439 7296 bcb7 7cd2 25b9 f27f 2fb9
00000220: d46d f320 e284 0680 0593 32b8 840d 3eb9
00000230: 9c6e 0600 90b1 0500 f979 0580 d623 8e30
00000240: 6934 0d38 1e8e 0680 b952 0938 3d7c 42b7
00000250: d6fd 1fb8 8579 f237 c888 0500 f778 f0b7
00000260: b9d6 2038 b25a 0580 465e 0600 aa58 0500
00000270: 6868 0500 b8ef 0580 4f0a 3138 ded3 0600
00000280: f44e 0600 39ab 0580 0c26 06b8 e19d 5035
00000290: f103 cd37 c7e2 51a8 9f13 4139 f126 9eb5
000002a0: 375b 0680 f23f 7138 0a47 ddb6 e673 0500
000002b0: cee6 07b6 00d7 0580 be7c 0580 0fbe 2fb7
000002c0: b294 fd37 5909 2c39 eb59 0500 a24e 0600
000002d0: 7a0d 0680 aafe 0500 d01a 3337 ba07 50b8
000002e0: 7d31 0980 a890 0580 a0d7 0600 cfdf 8a06
000002f0: 12b2 0680 5d6d 0500 dddb 2938 0981 1eb6
00000300: 8e28 3c35 d968 9cb6 70fc 0580 c427 15b8
00000310: c22c 0680 e861 0500 5c52 c5b8 770f 0600
00000320: a15c 0580 3678 2faf 8698 0637 aa5c 0500
00000330: 86cb 0580 ef62 1038 9c43 6100 735b 0600
00000340: 89e0 31b6 94b8 d937 b88a 0680 ad75 0500
00000350: 00ba 0500 f819 921e b2a4 42b8 af60 0500
00000360: 10c7 8bb6 03d0 0500 adaa 0580 ea4c 0680
00000370: 5915 0680 5521 f2b8 514d 0600 0dba 0500
00000380: 79e0 5c98 cbce 0580 4b38 9239 77cf ccad
00000390: f75d 1739 2d13 0680 285f 0680 c867 0500
000003a0: c183 0500 f5a3 0580 8832 7f35 ee53 acb8
000003b0: 753f 38b9 6f8a 0500 ce31 b836 88d0 0580
000003c0: e864 ceb8 e291 b524 57e1 0500 03e0 0500
000003d0: d44b 0680 22df df37 fd0d 29a1 a02d 8634
000003e0: 6882 0680 94cb 0580 3ba1 0580 5022 f238
000003f0: 1f6b 0600 8afc 22b6 eb07 0680 91b3 8b37
0.002254312 -0.00269847 -0.025898697 0.0046871277 -0.029071888 0.03013975 -0.11714551 0.14490074
2.4239625e-07 0.00022639314 0.21242522 -0.099454165 -7.660966e-05 0.0015008826 -4.7923913e-06 0.013972298
0.14209996 0.0026751454 -0.062535964 0.17379278 0.19697037 0.046932377 4.94965e-40 0.030746205
0.5175998 0.0013668603 -4.220091e-05 -4.93459e-40 -4.94913e-40 -0.0015143319 -0.44075784 -0.00024077667
5.4303206e-22 0.047505 0.15574236 0.40357557 -0.0349341 -0.00097167183 0.08455633 0.19918127
-3.6311697e-29 0.04901085 0.18515807 4.93065e-40 0.05885225 -0.0029873645 0.0050179567 0.2315513
0.15294744 -0.12517707 -0.00016674436 1.0209066e-06 2.6107702e-05 8.476681e-05 0.15491034 0.17807236
0.035294622 -0.009955455 -0.020203354 -0.012655755 0.0011888322 6.3261024e-05 -0.47863382 0.0212215
0.174163 0.2246655 -0.0036126159 0.17425409 0.0075456714 -3.5771445e-06 0.21067888 0.023197152
-2.9325449e-05 0.13450284 0.1897718 -0.0001405558 -4.91123e-40 -0.116243735 0.009056925 1.5861387e-07
0.17427762 0.10542702 2.0221145e-09 0.002753158 -0.0065187598 -1.7079897e-07 -0.023847539 -2.1149319e-08
0.22875501 0.005085048 4.9334e-40 0.0015498718 3.6915987e-06 -0.09323041 5.6419105e-07 -1.9438273e-10
-0.034329142 8.597422e-09 -0.095650785 0.0041410597 -0.06035878 0.009459384 7.773025e-07 -0.0006865496
-1.3801122 -1.0573715e-10 0.24461201 -0.008709717 -0.10579674 4.94164e-40 0.2439269 -9.5465916e-15
-0.004261507 1.6265327e-05 0.00033707218 5.404947e-07 0.0010753692 -0.018963853 -4.192625e-06 0.25776967
4.9665e-40 3.5061734e-05 -4.91077e-40 -0.043815006 4.92467e-40 0.27600667 0.022594754 -0.06898349
-5.42375e-40 -5.29502e-40 2.7585513e-05 4.95695e-40 0.00017240093 -2.2481403e-05 -0.00015814038 -0.00016736964
4.123848e-19 -5.98682e-40 -4.257543e-05 -0.00018124847 5.90692e-40 5.22875e-40 -5.02933e-40 1.0342045e-09
3.366583e-05 -6.01995e-40 3.2740387e-05 -1.1592228e-05 -3.8144957e-05 2.8905235e-05 5.08245e-40 -2.8666558e-05
3.834695e-05 -4.91713e-40 5.84832e-40 4.90984e-40 4.96631e-40 -5.45172e-40 4.220969e-05 6.27017e-40
5.79336e-40 -5.206e-40 -3.1983524e-05 7.771578e-07 2.443974e-05 -1.1651005e-14 0.00018413224 -1.1783251e-06
-5.83735e-40 5.751843e-05 -6.5945833e-06 5.00754e-40 -2.0250914e-06 -5.36305e-40 -5.03927e-40 -1.0475064e-05
3.0229192e-05 0.0001640668 4.91434e-40 5.79221e-40 -5.55847e-40 5.50534e-40 1.0675474e-05 -4.959826e-05
-8.44273e-40 -5.1107e-40 6.28365e-40 5.223869e-35 -6.14893e-40 4.9841e-40 4.0497504e-05 -2.3618943e-06
7.009447e-07 -4.661368e-06 -5.49735e-40 -3.5561403e-05 -5.67069e-40 4.943e-40 -9.409033e-05 5.56561e-40
-4.92406e-40 -1.5958865e-10 8.0225345e-06 4.92419e-40 -5.32188e-40 3.4424414e-05 8.932297e-39 5.83819e-40
-2.6505752e-06 2.5954367e-05 -6.00776e-40 5.01392e-40 5.25902e-40 1.5469092e-20 -4.640659e-05 4.93861e-40
-4.1656967e-06 5.33798e-40 -5.20404e-40 -5.78605e-40 -5.58671e-40 -0.00011545668 5.78749e-40 5.2592e-40
-2.8547663e-24 -5.33361e-40 0.00027889232 -2.3284248e-11 0.00014435487 -5.57892e-40 -5.85149e-40 4.96407e-40
5.06442e-40 -5.17994e-40 9.5068435e-07 -8.217232e-05 -0.00017571247 5.08838e-40 5.4894253e-06 -5.33984e-40
-9.841641e-05 7.874337e-17 5.40014e-40 5.39538e-40 -5.78215e-40 2.6687576e-05 -5.727794e-19 2.4992642e-07
-5.97794e-40 -5.32208e-40 -5.17016e-40 0.000115458504 5.89441e-40 -2.4286878e-06 -5.53853e-40 1.6653708e-05

net.4.bias f4 [15]
00000000: d00f 833d b179 e136 28c2 653c 2b78 03bd
00000010: d2e9 8c3d 28f9 243d 1836 333b 319a 163c
00000020: 4ed0 083e 6a42 a13d dc63 f73b a31c 343d
00000030: c1a1 943d d08e 673d e04c fb3d
0.063995 6.7196893e-06 0.014023341 -0.032097023 0.06880535 0.040276676 0.0027345475 0.0091920355
0.13360712 0.078739956 0.007549746 0.043972623 0.072574146 0.05653268 0.12270522

exp_avg f4 [128, 1]
00000000: 0000 0080 db92 8038 0000 0000 289a 0839
00000010: 9e96 97b9 e99a 7cad c06d 3bb7 f956 10a3
00000020: 6e12 0b37 0000 0000 02e2 f037 157a 13af
00000030: 611a 9cb8 a17f 1438 c98b 9539 6bdd 7938
00000040: 5840 3539 9deb c7a9 0a27 8c39 3a69 9a39
00000050: 0000 0000 d0c6 02b3 0ae5 f438 d474 53ae
00000060: 35f0 7838 ebdf 7239 41ee 93b7 1e02 609f
00000070: 14d9 9c37 e87d 1738 fc8f 3939 e525 f38f
00000080: 4331 4d38 9dab 3ab9 1379 76aa 069f e138
00000090: 0a33 c137 a2f7 1298 b6ac 7eb1 df01 c7b8
000000a0: f432 b637 0000 0080 ce4b 053a 576e 17ab
000000b0: 0000 0080 8c56 c939 351d 1f3a a4f3 b396
000000c0: 5243 eeb8 a812 9a36 9260 1f37 3307 1c39
000000d0: ae95 6d38 7d82 a338 4f94 1235 c012 c2b4
000000e0: b107 61a4 8435 7039 1f6e 83b8 0abf c5a7
000000f0: 7d00 5238 59bc 0439 afe8 0db9 bb06 0aac
00000100: 89a5 7d39 be1b ce37 777b 1cb8 3511 8737
00000110: 9f36 b3b7 95cf ddaf a502 293a bd4e e339
00000120: 69ce 9639 fdf8 90b0 6121 feb0 f33c 83b2
00000130: 0a9a f8ae 6817 c639 2c22 0138 281e 8339
00000140: 205f d41e aea7 f88c 84c3 f7b8 f700 9939
00000150: 1d86 7139 9f52 0bba 371e d137 32f8 b82c
00000160: a2fe 9c93 c80b 6938 6c05 eead 6eeb d4a2
00000170: 859a bcb2 c67a 1d39 dc78 1a39 f63e c5b8
00000180: 61dc ab95 e800 0080 0c4e cf83 6a73 d339
00000190: ee23 8038 1c2d 9539 a29a 013a 1768 a239
000001a0: 712a be37 d6f1 96b1 7bc4 eab9 7356 eb8b
000001b0: 2acb 3c38 3734 beb1 cd43 d9b3 e7c4 8faa
000001c0: 869a e9b2 0300 0080 971b 91b1 09e1 c339
000001d0: 0000 0080 26fe 3139 2c35 6203 e4d1 c9b1
000001e0: 32a4 fcb3 13d6 1086 a29c 7326 5b05 e4a0
000001f0: 4b14 ac37 073c 9baf de6e 1137 d607 0f38
-0.0 6.1308696e-05 0.0 0.00013027398 -0.00028913183 -1.43589385e-11 -1.1171622e-05 -7.824673e-18
8.289337e-06 0.0 2.8715473e-05 -1.3412944e-10 -7.443573e-05 3.5404813e-05 0.00028523643 5.9572438e-05
0.00017285475 -8.878248e-14 0.00026731967 0.0002945157 0.0 -3.0448803e-08 0.000116774885 -4.807961e-11
5.9351518e-05 0.00023162334 -1.7634711e-05 -4.7435596e-20 1.8697734e-05 3.6118465e-05 0.00017696613 -2.3976246e-29
4.8921687e-05 -0.00017802273 -2.1891195e-13 0.000107584565 2.303116e-05 -1.899508e-24 -3.706004e-09 -9.489408e-05
2.1719818e-05 -0.0 0.0005084843 -5.3799104e-13 -0.0 0.0003840219 0.0006069721 -2.9072769e-25
-0.00011361264 4.5917295e-06 9.499623e-06 0.00014880001 5.6644603e-05 7.796751e-05 5.4605056e-07 -3.6148958e-07
-4.8795613e-17 0.0002290812 -6.2670784e-05 -5.488561e-15 5.0068356e-05 0.00012658666 -0.00013533489 -1.9614716e-12
0.00024189627 2.4570032e-05 -3.7308284e-05 1.6101267e-05 -2.1363898e-05 -4.0347162e-10 0.00064472324 0.0004335548
0.00028764017 -1.0548146e-09 -1.8490419e-09 -1.5278124e-08 -1.1305097e-10 0.00037782942 3.078782e-05 0.00025008735
2.2485716e-20 -3.8311369e-31 -0.000118142954 0.00029183153 0.00023033512 -0.00053147407 2.4928811e-05 5.2571498e-12
-3.9631024e-27 5.55625e-05 -2.7059875e-11 -5.7711986e-18 -2.1956348e-08 0.00015018423 0.00014731608 -9.4054194e-05
-6.9414047e-26 -3.25e-43 -1.2184285e-36 0.00040331046 6.110208e-05 0.00028453104 0.00049440016 0.000309766
2.2669528e-05 -4.393068e-09 -0.00044778347 -9.064878e-32 4.5011904e-05 -5.535664e-09 -1.0117183e-07 -2.553853e-13
-2.7195039e-08 -4e-45 -4.223192e-09 0.00037360963 -0.0 0.00016974713 6.647647e-37 -5.8737317e-09
-1.17645314e-07 -2.7240667e-35 8.451984e-16 -3.8628246e-19 2.0513447e-05 -2.8236988e-10 8.668487e-06 3.4101155e-05

exp_avg_sq f4 [128, 1]
00000000: 016b 2329 d4a5 8c37 7968 9028 e225 2838
00000010: 6b5b 2539 5cfb 532c 416b 9736 721e 4d2b
00000020: 9af4 2737 154c 3e29 ba3b 5537 2105 d12c
00000030: d501 c936 b378 2637 288e 1d38 e299 a137
00000040: 1a57 c237 3228 4a27 34cf 2438 ff78 4838
00000050: 6cbb c128 5ce8 eb30 4ee1 8b37 77c5 f12a
00000060: 2410 5837 e338 3836 a6e2 0437 c5e6 042b
00000070: 868d 2537 bb72 6937 c2e8 f537 5219 3b2a
00000080: 8042 5e37 a3b7 2f36 17a8 bd2a 3efb 0d38
00000090: 6003 9236 b122 a22a 3ea7 bf2d 4fe9 bb34
000000a0: e508 1537 c6b7 cf27 5fec 1939 15ee 2e2c
000000b0: ac97 8029 716e 5938 406e 6738 a042 212a
000000c0: d2a8 3835 538c 9736 bab6 8736 8570 4538
000000d0: f13a 9337 e185 3937 0543 ab36 b63c 2731
000000e0: ab1e 752b 11d7 9b36 010f fc36 3bef cc2b
000000f0: fac8 5337 67ed 9737 4090 c435 ff9c 282c
00000100: 011d 5536 118c 0733 89a5 b836 f0e0 c236
00000110: 9017 d738 5845 102d ce14 5a38 e5c6 5338
00000120: acff 2535 20d6 292d 42b2 592d 2a74 132e
00000130: 6ae4 952c b96a 7d38 4a48 a437 eabe df37
00000140: 2cd5 4828 844e 3b2a e668 3c36 b4d5 1138
00000150: 8c95 2738 7f0b 4237 6895 0237 c53e 5927
00000160: 6080 702a acbc 1937 b7fc 962c 46c8 472b
00000170: d0a5 972c a9e4 b037 9e9a 8a37 ee8c 2235
00000180: 4280 882a 6c7c c029 d484 072a bdd3 4338
00000190: b2ce 3937 4b5f 1b38 2f24 2c38 e070 3d38
000001a0: a10b 7733 9448 aa2d b698 c538 7b14 a727
000001b0: dbc8 2e37 3ee0 a72d 0a3b 382f 1e71 012c
000001c0: 23da d42d ba89 9a29 793b c62d 4a27 3838
000001d0: 0a38 6f28 da04 e137 500c d326 6bef c62d
000001e0: 18b5 de2f 3cea 0e2a f64a 3928 6be1 102b
000001f0: ef19 2d37 c3a0 3b2d 522a ef36 bf7b 3537
3.6286082e-14 1.676652e-05 1.603252e-14 4.0089602e-05 0.00015769682 3.0124436e-12 4.5126367e-06 7.287288e-13
1.0010926e-05 4.2254466e-14 1.27096955e-05 5.9407067e-12 5.99048e-06 9.9224735e-06 3.756411e-05 1.9264353e-05
2.3167162e-05 2.8054921e-15 3.929362e-05 4.7796402e-05 2.1508586e-14 1.7164541e-09 1.6675007e-05 4.2947219e-13
1.2878361e-05 2.745125e-06 7.920584e-06 4.721608e-13 9.867717e-06 1.3914595e-05 2.9314662e-05 1.6617721e-13
1.3247714e-05 2.6183923e-06 3.368978e-13 3.3851007e-05 4.351532e-06 2.8801053e-13 2.1788456e-11 3.500122e-07
8.883163e-06 5.765329e-15 0.00014679272 2.485905e-12 5.710653e-14 5.183969e-05 5.517737e-05 1.4322788e-13
6.879101e-07 4.5164866e-06 4.0445857e-06 4.7073252e-05 1.7551212e-05 1.105803e-05 5.1039992e-06 2.4336209e-09
8.7084045e-13 4.644397e-06 7.511932e-06 1.4561472e-12 1.2623374e-05 1.8111152e-05 1.464512e-06 2.3961386e-12
3.1756356e-06 3.1559527e-08 5.502898e-06 5.8078367e-06 0.00010256388 8.20085e-12 5.1994626e-05 5.0491555e-05
6.183934e-07 9.654083e-12 1.2374603e-11 3.3527105e-11 4.2601938e-12 6.0419294e-05 1.9583986e-05 2.6672573e-05
1.11484545e-14 1.6636177e-13 2.8075242e-06 3.476972e-05 3.995518e-05 1.1565978e-05 7.78339e-06 3.0148827e-15
2.1360821e-13 9.163439e-06 4.2913134e-12 7.097694e-13 4.310087e-12 2.1087313e-05 1.6522881e-05 6.055478e-07
2.424745e-13 8.5480966e-14 1.2036493e-13 4.668882e-05 1.1074984e-05 3.704363e-05 4.1041694e-05 4.5166234e-05
5.7519745e-08 1.9358994e-11 9.422137e-05 4.6374016e-15 1.04179735e-05 1.9085285e-11 1.6755677e-10 1.8394795e-12
2.4198482e-11 6.8628656e-14 2.2536405e-11 4.390561e-05 1.3279317e-14 2.682435e-05 1.4644403e-15 2.2616317e-11
4.051024e-10 1.26934e-13 1.02858175e-14 5.1471907e-13 1.0317642e-05 1.0665416e-11 7.127682e-06 1.0817253e-05

exp_avg f4 [128]
00000000: 2a08 7993 c017 a9b9 eb83 7f90 3dac c539
00000010: 5e37 2db9 ed9c 1ab2 2a7a 92b9 c291 62ac
00000020: 7b5e abb9 737a 9988 8f1d abb9 865e 31b1
00000030: 6a10 78b8 25af 88b9 52ac 4ab9 e54b bdb9
00000040: 94e0 56b9 847b d9ab 059e 67b9 d251 293a
00000050: ac41 0490 d18b c5b3 221f 81b9 8a70 84b2
00000060: afb7 93b9 a292 f3b8 bbbb a8b9 9c2d deac
00000070: 2061 a4b9 625a a5b9 d1b3 78b9 806f 77aa
00000080: d9b2 9cb9 594b eab9 b80c afb0 3f96 cfb9
00000090: 03d6 4ab9 170b 27ab 2be3 2eb2 2793 29b9
000000a0: 4d5f 96b9 74fc ca89 318e 803a a0f8 14b1
000000b0: 0992 fe9c b06b 22b9 204f eb38 41ee 0c9a
000000c0: 0c8d 41b9 e97b 5cb9 27e0 55b9 e03b d339
000000d0: f654 b6b9 cc38 6bb9 746d 81b9 0b98 b5b4
000000e0: 6350 c1ab 0880 aeb9 985e 2b37 f18d 62af
000000f0: 5480 93b9 715e 73b9 1235 96b9 e9ff a4b1
00000100: 9272 a8b8 9b59 d43a 35fc abb9 45ab 65b9
00000110: b456 9b39 02e3 46b2 264c 5339 fbf7 aeb8
00000120: 9a75 523b dea2 14b3 4ca9 82b2 6768 a1b3
00000130: c828 33b2 2f8a 67b9 d772 d3b9 8a2f 12b9
00000140: bcd3 22a0 aac7 5fa2 5977 47b9 3fb3 30b9
00000150: b6a7 95b9 d874 02ba 4046 8eb9 fcbb 862d
00000160: 4010 48a7 a284 7fb9 f0c2 18b2 c1ae 9ead
00000170: 6382 d7b3 2ff8 72b9 fd28 31b9 eb03 e6b8
00000180: 5e65 82aa 3717 0185 7ffc b89b 89e2 e6b8
00000190: 5d68 7cb9 80d3 41b9 701c aa38 1eb5 5ab9
000001a0: 5ab2 e13a 7e34 96b3 ab1c 5bb9 2f10 0b8d
000001b0: 5571 93b9 eff4 1fb3 ab4f 8eb4 c464 67b1
000001c0: 941d 05b4 bed6 c998 afe3 23b3 5710 f4b8
000001d0: 5550 a289 7221 89b9 d499 e884 059c 1eb3
000001e0: 29e8 80b4 5af5 2694 8613 18a7 35e2 3aab
000001f0: 8540 a5b9 7b27 78b2 2493 93b9 9985 96b9
-3.1432244e-27 -0.00032251887 -5.039151e-29 0.00037703096 -0.00016519192 -8.999661e-09 -0.0002793831 -3.2197443e-12
-0.00032686055 -9.23714e-34 -0.00032637684 -2.581062e-09 -5.9143094e-05 -0.00026070434 -0.00019328416 -0.00036105435
-0.00020492292 -1.545306e-12 -0.00022088744 0.00064590306 -2.6083002e-29 -9.19896e-08 -0.00024627993 -1.5418e-08
-0.0002817488 -0.000116144554 -0.00032183327 -6.314683e-12 -0.0003135288 -0.00031538593 -0.0002371811 -2.1976691e-13
-0.0002988789 -0.00044688096 -1.2736541e-09 -0.0003959406 -0.00019343947 -5.934571e-13 -1.0179785e-08 -0.00016171914
-0.00028681234 -4.8867137e-33 0.0009808001 -2.1678161e-09 -1.6846059e-21 -0.0001548964 0.000112204114 -2.914378e-23
-0.00018458458 -0.00021026995 -0.00020396766 0.00040289667 -0.00034777046 -0.00022432505 -0.00024686346 -3.3824503e-07
-1.3735787e-12 -0.00033283257 1.0214419e-05 -2.0605008e-10 -0.00028133637 -0.00023209468 -0.0002864977 -4.802122e-09
-8.032205e-05 0.0016201021 -0.0003280357 -0.00021902945 0.00029628503 -1.15767325e-08 0.00020150896 -8.3431565e-05
0.0032113553 -3.4607062e-08 -1.521098e-08 -7.5161374e-08 -1.0428444e-08 -0.00022081354 -0.00040330619 -0.00013941355
-1.3791991e-19 -3.0327837e-18 -0.0001902258 -0.00016851442 -0.0002854445 -0.00049765175 -0.0002713669 1.5317518e-11
-2.7764385e-15 -0.00024368105 -8.891888e-09 -1.8040127e-11 -1.0035435e-07 -0.00023171374 -0.00016895305 -0.000109679844
-2.3162977e-13 -6.069815e-36 -3.0603418e-22 -0.0001100945 -0.00024071471 -0.00018484704 8.1115286e-05 -0.00020857572
0.0017219291 -6.9944676e-08 -0.00020896147 -4.285216e-31 -0.00028122464 -3.7242838e-08 -2.6507527e-07 -3.3672203e-09
-1.239735e-07 -5.2174116e-24 -3.8158472e-08 -0.0001163787 -3.9075625e-33 -0.00026155595 -5.4684207e-36 -3.692914e-08
-2.4010777e-07 -8.429245e-27 -2.1104821e-15 -6.63944e-13 -0.00031519323 -1.4444477e-08 -0.00028147653 -0.00028709768

exp_avg_sq f4 [128]
00000000: 7c86 6b2a d5fa b438 6b40 5d2a b472 8338
00000010: d531 6e39 bbd8 c02d a0f0 b937 d6d2 682c
00000020: 3a44 5d38 cd00 242a a0e1 8d38 bc7b 972d
00000030: 623d 8d37 c587 5938 72d9 2e39 1e7a ce38
00000040: 09a6 e738 605a bf28 7faf 3939 38da a038
00000050: 73bf 5f2a 4b65 1f32 562c a838 f2a2 582c
00000060: e09b 8b38 878b 7138 6ba8 3438 eec1 622c
00000070: 4a36 5b38 6394 9a38 c29d 1239 8aa4 f42b
00000080: 9083 9138 34cd fe36 9d07 fd2b 7b52 3439
00000090: b915 bb37 7572 1c2c e08d 0b2f 75f0 6f35
000000a0: bff8 4338 a3a8 292a cf85 7d39 2ba2 8a2d
000000b0: 17d0 d32a 877b 6639 2bb2 4d39 3f78 3e2a
000000c0: 08db e336 92f8 cc37 7032 b237 6a01 9d38
000000d0: 9611 bc38 e798 6738 f576 e337 d452 6c32
000000e0: c73d 4a2c a8fd cf38 935e 3a37 a83a 1e2d
000000f0: 5ab8 8b38 ca39 b938 af7d 8536 866a ab2d
00000100: e92f 8f38 48c8 ea37 0a80 0138 07cb 0338
00000110: 2da4 0439 58cc 292e dc95 3439 bef8 5739
00000120: e852 7538 7188 8b2e 62a8 a42e 5fac 242f
00000130: 595d c62d 202d 8a39 ebc8 d438 64a3 fa38
00000140: 0d8b 7529 d9ef 392b dbbe e036 c0c0 1d39
00000150: 0f1b 4339 d324 5f37 0f13 2738 5833 ac29
00000160: 3a16 9c2b 628e 4538 aa87 082e fa8a 932c
00000170: 8bb3 302e 910c d138 7ca1 a338 63d9 c236
00000180: 77fe 012c a2ad 042a bed9 c42a ba4f 4c39
00000190: ac41 6f38 7d48 2f39 0030 1f39 6043 5339
000001a0: edb6 2538 79c2 112f bd82 ee38 79dd 7229
000001b0: 2d80 5a38 3149 af2e 723f 8130 2b06 922d
000001c0: 94e2 1e2f dfa1 832a d08d db2e 8ca1 4039
000001d0: 051d 2a2a 5984 0539 027a 6329 e7b2 9a2e
000001e0: e4fd 0931 88d7 782a c159 8129 2c92 132c
000001f0: 2dbf 6338 dbec a82e 3278 2238 06df 6d38
2.0918852e-13 8.62979e-05 1.9651093e-13 6.267932e-05 0.00022716013 2.192412e-11 2.2165768e-05 3.308622e-12
5.2754047e-05 1.4566404e-13 6.76543e-05 1.7221662e-11 1.6837093e-05 5.1863277e-05 0.00016674938 9.8455916e-05
0.00011045865 2.1244454e-14 0.00017708352 7.670041e-05 1.9872801e-13 9.278049e-09 8.0191225e-05 3.07859e-12
6.6570705e-05 5.7588823e-05 4.3072196e-05 3.2224184e-12 5.226423e-05 7.3709314e-05 0.00013982414 1.7382912e-12
6.938644e-05 7.5936787e-06 1.7978844e-12 0.00017196864 2.2302253e-05 2.223247e-12 1.269238e-10 8.938435e-07
4.6723286e-05 1.5068723e-13 0.00024177808 1.57608e-11 3.762552e-13 0.00021980527 0.00019616696 1.6917109e-13
6.790626e-06 2.4434445e-05 2.124274e-05 7.486607e-05 8.967814e-05 5.5217093e-05 2.7115902e-05 1.3755841e-08
2.874022e-12 9.917776e-05 1.1108484e-05 8.9942845e-12 6.662375e-05 8.8322515e-05 3.9783404e-06 1.9487755e-11
6.827695e-05 2.7988237e-05 3.0875242e-05 3.1421918e-05 0.00012649661 3.8607645e-11 0.00017221965 0.00020596661
5.8489764e-05 6.345225e-11 7.4877674e-11 1.4976952e-10 2.2551449e-11 0.00026355032 0.00010146372 0.00011951363
5.4521536e-14 6.605806e-13 6.6979387e-06 0.00015044492 0.0001860673 1.330041e-05 3.9833652e-05 7.647241e-14
1.1090636e-12 4.7101064e-05 3.1043314e-11 4.193421e-12 4.0177233e-11 9.968237e-05 7.8025245e-05 5.8069577e-06
1.847326e-12 1.1784196e-13 3.4967683e-13 0.00019484657 5.7043202e-05 0.00016716305 0.00015181303 0.00020147627
3.950943e-05 1.3256764e-10 0.00011373076 5.392689e-14 5.2094623e-05 7.97108e-11 9.404018e-10 1.6601017e-11
1.4450513e-10 2.3382595e-13 9.984158e-11 0.00018370728 1.5109101e-13 0.00012733172 5.050995e-14 7.0348886e-11
2.0080444e-09 2.2101602e-13 5.7443206e-14 2.0971098e-12 5.4299064e-05 7.6818295e-11 3.873575e-05 5.671291e-05

exp_avg f4 [128, 128]
00000000: 0000 0000 05c4 ab9f 0000 0000 0000 0080
00000010: 0000 0000 0000 0000 135c 8b95 0000 0000
00000020: fabb 889a 0000 0080 6012 5ea2 0000 0080
00000030: 0000 0080 0000 0000 d655 6902 7e48 12a3
00000040: 9897 989f 0000 0000 0000 0080 0000 0080
00000050: 0000 0000 0000 0000 a075 a2a0 0000 0080
00000060: 19ea 0e96 0000 0000 70cf f199 0000 0080
00000070: 3c4d d3a6 0000 0080 0000 0000 0000 0080
00000080: 637e 938e 0000 0000 0000 0000 7c45 01a0
00000090: 0000 0000 0000 0080 0000 0080 0000 0000
000000a0: 7ccb 7e9e 0000 0000 0000 0080 0000 0000
000000b0: 0000 0000 0200 0000 82fe e997 0000 0000
000000c0: 0000 0080 a67b 3e9e 0000 0000 0000 0080
000000d0: 20ef c69a b2d2 e48d e6a7 9d99 0000 0000
000000e0: 0000 0080 0000 0080 0000 0000 0000 0080
000000f0: ecde 599e 2289 989f 0000 0080 0000 0000
00000100: 0000 0000 0000 0000 624d 0c93 9a96 3081
00000110: 0000 0080 0000 0080 d661 3f99 e5bc 0100
00000120: 0000 0000 0000 0080 0000 0080 0000 0000
00000130: 0000 0000 0300 0000 c5d3 2ea1 2d38 0200
00000140: 0000 0080 0000 0000 0000 0080 e0a0 1b9e
00000150: 0000 0000 0000 0000 086b 038c 0000 0080
00000160: 0000 0000 3936 02a4 0000 0000 0000 0080
00000170: 0000 0000 910b ee95 4876 0b99 0000 0000
00000180: 0000 0080 0000 0080 0000 0080 9b88 2895
00000190: 0442 dc91 ef16 279b 9814 ce88 0000 0000
000001a0: 0000 0080 0000 0080 0000 0080 0000 0080
000001b0: 911d 2993 0000 0080 0000 0080 0000 0080
000001c0: 0000 0080 0000 0000 0000 0000 0000 0080
000001d0: 0000 0080 e5f9 8493 0000 0000 0000 0000
000001e0: 0000 0080 0000 0000 0000 0000 0000 0000
000001f0: b90d 7ca1 0000 0080 ba70 949f cbab 2395
00000200: 0000 0000 2800 2fab 0000 0000 0000 0080
00000210: 0000 0080 0000 0000 7e06 c2a8 0000 0080
00000220: 297e dda9 0000 0000 1554 58ac 0000 0000
00000230: 0be0 0006 a3a4 b09b 16f4 7aa0 3b9c 87ac
00000240: 60fa c3aa 0000 0000 d592 c78c 0000 0000
00000250: 0000 0080 0000 0080 3bf8 53ab 0000 0080
00000260: 9dbc b8a7 0000 0000 251b d3a9 0000 0000
00000270: dab3 21ae 3db0 669d 0000 0000 0000 0080
00000280: f912 9ca5 91ed 3f10 0000 0080 d556 02ab
00000290: 4d2f 5a9c 0000 0080 0000 0000 1970 0817
000002a0: c46e 0eab 0000 0000 0000 0000 0000 0080
000002b0: 0000 0080 4a82 ac99 0b33 b0a6 0000 0080
000002c0: 0000 0000 b25f 34ab d43d bd9a 0000 0080
000002d0: fb70 89a9 6e41 17a5 6534 c4a9 0000 0080
000002e0: 0000 0080 0000 0080 0000 0000 0000 0000
000002f0: 09b8 c9aa 747d f4aa e498 ab11 0000 0080
00000300: 0000 0080 0000 0080 faf5 13a8 c9f7 42a3
00000310: 0000 0000 0000 0080 a452 47a7 a074 559d
00000320: 0000 0000 0000 0080 0000 0080 0000 0080
00000330: 0000 0000 369d ca99 a56a e7ab 0503 d69e
00000340: 0000 0080 0000 0000 0000 0080 b179 d9a9
00000350: 8e8b bf83 0000 0000 c297 40a5 0000 0080
00000360: 0000 0000 27a5 0ead 0000 0000 0000 0080
00000370: 0000 0000 289a 07a7 0a42 2fa8 141b 8486
00000380: 0000 0080 0000 0080 0000 0080 00c7 fba5
00000390: e5c1 5fa6 1db1 9fa8 2895 7ca1 4696 1392
000003a0: 0000 0000 0000 0000 0000 0000 0000 0000
000003b0: 619a 35a7 0000 0000 0000 0000 0000 0000
000003c0: 0000 0080 0000 0000 0000 0080 d3e2 2198
000003d0: 0000 0080 a6ad 10a6 0000 0000 0000 0080
000003e0: 0000 0000 0000 0080 0000 0080 0000 0000
000003f0: 536c 2aac 0000 0080 7436 98ab 4045 c1a7
0.0 -7.2745604e-20 0.0 -0.0 0.0 0.0 -5.628692e-26 0.0
-5.6551974e-23 -0.0 -3.0096338e-18 -0.0 -0.0 0.0 1.714277e-37 -7.930027e-18
-6.4625295e-20 0.0 -0.0 -0.0 0.0 0.0 -2.7521705e-19 -0.0
-1.1544537e-25 0.0 -2.50026e-23 -0.0 -1.4662001e-15 -0.0 0.0 -0.0
-3.6360004e-30 0.0 0.0 -1.0949715e-19 0.0 -0.0 -0.0 0.0
-1.3488728e-20 0.0 -0.0 0.0 0.0 3e-45 -1.5121519e-24 0.0
-0.0 -1.0084086e-20 0.0 -0.0 -8.227721e-23 -1.4102308e-30 -1.6301233e-23 0.0
-0.0 -0.0 0.0 -0.0 -1.15339835e-20 -6.460137e-20 -0.0 0.0
0.0 0.0 -1.7708637e-27 -3.2434146e-38 -0.0 -0.0 -9.894226e-24 1.59598e-40
0.0 -0.0 -0.0 0.0 0.0 4e-45 -5.923377e-19 2.03823e-40
-0.0 0.0 -0.0 -8.2389e-21 0.0 0.0 -1.0124081e-31 -0.0
0.0 -2.8235185e-17 0.0 -0.0 0.0 -9.614568e-26 -7.210018e-24 0.0
-0.0 -0.0 -0.0 -3.4035093e-26 -3.4750565e-28 -1.3821326e-22 -1.2403016e-33 0.0
-0.0 -0.0 -0.0 -0.0 -2.1345376e-27 -0.0 -0.0 -0.0
-0.0 0.0 0.0 -0.0 -0.0 -3.35679e-27 0.0 0.0
-0.0 0.0 0.0 0.0 -8.5399083e-19 -0.0 -6.286693e-20 -3.305311e-26
0.0 -6.2172706e-13 0.0 -0.0 -0.0 0.0 -2.1541142e-14 -0.0
-9.836257e-14 0.0 -3.0742121e-12 0.0 2.4238725e-35 -2.9223152e-22 -2.1256585e-19 -3.854276e-12
-3.481269e-13 0.0 -3.0749176e-31 0.0 -0.0 -0.0 -7.530675e-13 -0.0
-5.1274754e-15 0.0 -9.374991e-14 0.0 -3.6766902e-11 -3.053136e-21 0.0 -0.0
-2.7074543e-16 3.7851123e-29 -0.0 -4.630578e-13 -7.2191284e-22 -0.0 0.0 4.4085457e-25
-5.060225e-13 0.0 0.0 -0.0 -0.0 -1.7837007e-23 -1.2226288e-15 -0.0
0.0 -6.408165e-13 -7.8268457e-23 -0.0 -6.103621e-14 -1.3119331e-16 -8.7132375e-14 -0.0
-0.0 -0.0 0.0 0.0 -3.5832473e-13 -4.3430157e-13 2.707327e-28 -0.0
-0.0 -0.0 -8.213477e-15 -1.0569232e-17 0.0 -0.0 -2.7661597e-15 -2.8250609e-21
0.0 -0.0 -0.0 -0.0 0.0 -2.0949807e-23 -1.6443137e-12 -2.265938e-20
-0.0 0.0 -0.0 -9.657846e-14 -1.1258011e-36 0.0 -1.6704763e-16 -0.0
0.0 -8.108437e-12 0.0 -0.0 0.0 -1.8818582e-15 -9.728771e-15 -4.969267e-35
-0.0 -0.0 -0.0 -4.3676407e-16 -7.7631443e-16 -1.7729357e-14 -8.557833e-19 -4.6570248e-28
0.0 0.0 0.0 0.0 -2.5202485e-15 0.0 0.0 0.0
-0.0 0.0 -0.0 -2.092328e-24 -0.0 -5.0195374e-16 0.0 -0.0
0.0 -0.0 -0.0 0.0 -2.4218585e-12 -0.0 -1.0815363e-12 -5.364334e-15

exp_avg_sq f4 [128, 128]
00000000: d3d6 ae1f 4a42 c72a 9e6c b21f fe20 5225
00000010: 75d9 8d25 18e7 4920 ff3e 4d2a a51e 9317
00000020: b94a 882a a1d4 0c20 d7e2 fd2a 6566 6f20
00000030: 786f fe27 b9a1 5729 52fe d829 1446 082b
00000040: 926c c62a 72f2 341d 4b78 1129 b61e 8825
00000050: a9e2 391d 66e0 4c1f bbe5 d82a 508d e11e
00000060: a846 532a f94d 0528 3742 832a 9c7c 0520
00000070: db44 532b 68ee 7929 2404 8c28 7582 801e
00000080: deaf 182a 47f6 2928 ba81 421e bdbc cc2a
00000090: 2f02 4a29 95c7 351b 1599 0c1e c825 5b28
000000a0: d554 b42a 879d 191d 9832 8a25 2488 cf1e
000000b0: f02f 0220 705d 8c29 4578 6a2a 3a8a 901d
000000c0: c81e 7428 b044 b12a 5444 2c29 89ef 1125
000000d0: dce3 8a2a 932e 152a 3cd7 802a 4f95 8d1d
000000e0: 7002 901f e5e1 5c27 c880 7c24 de8e 101d
000000f0: ebee b22a 3c35 c62a e867 1d28 aa06 ff1e
00000100: 38a2 0027 217f c623 3049 362a 00dd cb29
00000110: 0999 2823 3925 6d1d 23cb 7d2a cc19 b629
00000120: c990 9825 a32d f91f 1ee8 e81e 5ac4 c51f
00000130: bafc 0d1c a9a8 8d29 a824 e32a 14ef b729
00000140: ad49 6d1b 6a09 511d fca9 5027 926e b02a
00000150: 6e30 d928 d822 3522 6642 0c2a 4414 d51e
00000160: efbb 901f 19dc 152b 55e8 a11d 2bf3 1b1f
00000170: 144c d31f 7c2e 522a a0c5 792a 0c6f da28
00000180: 4e7d 531f b18a 891b 807d 421f edac 4a2a
00000190: 77a1 2d2a 38ea 8e2a 489c 012a c97e 3729
000001a0: f9da 7724 ea2f 2d1d fcac 0623 edd3 d11f
000001b0: 1bb2 372a 1d30 cc18 d972 3820 f85d 361f
000001c0: 9383 3b1f d5d7 221c 7668 c01f 66a6 7e29
000001d0: f03f c61c bfdf 3a2a 0471 0920 e25d 3c20
000001e0: e9d3 8e1f a119 a81f 64e7 461e 8aba 1220
000001f0: 0a74 e82a e331 3720 6b06 c52a e3b2 492a
00000200: 1183 3c1f e15a 332c 2214 0b1d b891 7427
00000210: e991 3e27 2832 df1e 311d f42b 4a65 281f
00000220: b682 112c dddb cb1b b599 6f2c d504 ba1e
00000230: 7d4e 182a 0148 d92a 5b9a 182b ffa6 742c
00000240: a7d2 182c 499a 3420 3420 3a2a 4271 b527
00000250: 6894 f81e a545 e71d 92cd 2e2c a48f 621e
00000260: 9ad1 bd2b aa31 3b29 e3a1 132c 7a8a d61e
00000270: c3cb cb2c f6d9 f72a 221b b429 1b57 851f
00000280: 29ce 8d2b a1d9 662a f787 ca1f 4a2e 222c
00000290: 13db e52a 3cfd 921c 460c b21c b24b af2a
000002a0: 181d 342c c2d8 801d f02c b427 5704 181c
000002b0: acc3 691e aaab b32a 3732 962b 3ca4 701f
000002c0: d4c4 a029 733b 3f2c 161f cd2a 87d2 3427
000002d0: 3baa 022c e0d5 812b add6 0f2c 6531 e51f
000002e0: de05 5920 12e3 8c28 c4e7 ab26 a440 f91f
000002f0: 8676 262c 6ffd 212c 1700 792a 8c8d 6a20
00000300: 1594 2a28 9790 b226 3df4 da2b cf2e 5a2b
00000310: be58 9525 d131 3f20 0be2 a22b 2ff1 e82a
00000320: ae9a 7626 291c 5a1d 6115 231e 4e67 a91f
00000330: a069 471e af0b b52a 63b4 582c 41cc 042b
00000340: bf0e 5b20 f959 1720 781e 9e29 0044 f92b
00000350: df71 0a2a ab48 bf23 0817 882b fd00 ec1e
00000360: adb8 031f 29d4 922c bc99 f81d 1a17 151d
00000370: f022 011f 62fb a22b 20fe c12b 6a7e 142a
00000380: f1a4 421f 8eb4 831f 3b18 061f d456 892b
00000390: bb0c 9b2b 4d68 cb2b 5efe 252b 9c61 6a2a
000003a0: 582c 4a27 f238 9f18 8d9c 9725 9fe0 7118
000003b0: 31ce b32b c1cd 4320 1e99 871d 08bf 8e1e
000003c0: 8e5f 5f1d 7439 d51e 41f1 a61c 9aed a22a
000003d0: 9e6e e61f e6ba 8e2b 4269 bf1f 4a7d 121f
000003e0: b792 291d 2917 d01c ce96 4e1b 3b48 3c20
000003f0: 322b 6f2c b0a4 d51f 2754 512c 55e0 c22b
7.4047263e-20 3.5395498e-13 7.5565624e-20 1.8225775e-16 2.4606956e-16 1.7101825e-19 1.8229514e-13 9.507388e-25
2.4210302e-13 1.1928814e-19 4.509923e-13 2.0277967e-19 7.0620017e-15 4.7879862e-14 9.6364445e-14 4.841416e-13
3.52472e-13 2.3948143e-21 3.2300805e-14 2.361305e-16 2.4601727e-21 4.3384298e-20 3.8528715e-13 2.3881247e-20
1.8765078e-13 7.399891e-15 2.331622e-13 1.1306768e-19 7.5057815e-13 5.549589e-14 1.5544918e-14 1.3606483e-20
1.3561328e-13 9.4347874e-15 1.0297101e-20 3.6368643e-13 4.4854904e-14 1.5036458e-22 7.443195e-21 1.2165135e-14
3.2033287e-13 2.0330821e-21 2.3973468e-16 2.1973284e-20 1.102729e-19 6.233458e-14 2.0825102e-13 3.8259406e-21
1.35513955e-14 3.1489178e-13 3.8250937e-14 1.2657903e-16 2.4671834e-13 1.3250017e-13 2.2886716e-13 3.747677e-21
6.0990405e-20 3.065359e-15 5.475287e-17 1.9132102e-21 3.1784934e-13 3.5208804e-13 8.737782e-15 2.7001931e-20
1.7851507e-15 2.1521044e-17 1.6190239e-13 9.0533483e-14 9.139705e-18 3.1385932e-21 2.2541391e-13 8.086899e-14
2.6465907e-16 1.055311e-19 2.4659957e-20 8.375758e-20 4.697963e-22 6.290916e-14 4.0348736e-13 8.168306e-14
1.9627986e-22 2.7665787e-21 2.8957947e-15 3.1340604e-13 2.4112843e-14 2.454852e-18 1.2457534e-13 2.2560634e-20
6.129728e-20 5.324088e-13 4.285657e-21 3.302367e-20 8.9487837e-20 1.8667874e-13 2.2184208e-13 2.425102e-14
4.4784638e-20 2.2754376e-22 4.118491e-20 1.80012e-13 1.5421506e-13 2.538679e-13 1.1511723e-13 4.074413e-14
5.3745064e-17 2.292113e-21 7.3007854e-18 8.8865545e-20 1.6315458e-13 5.2781346e-24 1.5623406e-19 3.8617728e-20
3.9707626e-20 5.388026e-22 8.148798e-20 5.6543657e-14 1.3119068e-21 1.6597746e-13 1.1641745e-19 1.5955283e-19
6.0489915e-20 7.119317e-20 1.0529883e-20 1.2428402e-19 4.1291997e-13 1.5517209e-19 3.4998683e-13 1.791445e-13
3.9918964e-20 2.5487878e-12 1.8406905e-21 3.3940797e-15 2.6446895e-15 2.3631788e-20 1.7345345e-12 3.5659168e-20
2.0678298e-12 3.3725616e-22 3.4049267e-12 1.9695515e-20 1.3527543e-13 3.8596906e-13 5.421546e-13 3.4767187e-12
2.1717435e-12 1.5297642e-19 1.6531291e-13 5.0360386e-15 2.63194e-20 6.12172e-21 2.4841002e-12 1.19940446e-20
1.3487434e-12 4.1565418e-14 2.0979822e-12 2.2715404e-20 5.792229e-12 4.4027255e-13 7.9983126e-14 5.6471795e-20
1.0075874e-12 2.0503609e-13 8.577526e-20 2.304728e-12 4.0830585e-13 9.726929e-22 1.1782225e-21 3.113877e-13
2.5595689e-12 3.410544e-21 5.0008757e-15 5.029819e-22 1.2375381e-20 3.1915903e-13 1.0672078e-12 5.0957828e-20
7.1395716e-14 2.7175733e-12 3.6436885e-13 2.5094145e-15 1.8568608e-12 9.225364e-13 2.0440691e-12 9.706699e-20
1.8382556e-19 1.5641598e-14 1.1928329e-15 1.0556254e-19 2.3655813e-12 2.302016e-12 2.2115674e-13 1.9867405e-19
9.469006e-15 1.2390422e-15 1.5557621e-12 7.751412e-13 2.5907514e-16 1.6194812e-19 1.1573532e-12 4.1378833e-13
8.5558025e-16 2.8866618e-21 8.633569e-21 7.174519e-20 1.0556815e-20 3.2160166e-13 3.079558e-12 4.717928e-13
1.85549e-19 1.2819967e-19 7.021895e-14 1.7711388e-12 1.2296369e-13 2.0739038e-17 9.669774e-13 2.498788e-20
2.789309e-20 4.173124e-12 6.580401e-21 1.973193e-21 2.7345712e-20 1.1580565e-12 1.3784009e-12 1.3188899e-13
4.1217534e-20 5.577936e-20 2.8395647e-20 9.758535e-13 1.1016946e-12 1.4452967e-12 5.897278e-13 2.081724e-13
2.805717e-15 4.1158037e-24 2.6300407e-16 3.1261925e-24 1.2775945e-12 1.6585221e-19 3.589252e-21 1.5113843e-20
2.9563205e-21 2.2576014e-20 1.1047321e-21 2.894185e-13 9.759179e-20 1.0141582e-12 8.106578e-20 3.102034e-20
2.2442814e-21 1.3770272e-21 1.7088648e-22 1.5948118e-19 3.398792e-12 9.048146e-20 2.97474e-12 1.3846794e-12
