codes/runs_taskA/time_mlp/last.pt (torch, 230778 bytes, 18 tensors)

net.0.weight f4 [128, 1]
0	0xb9eeb322	-0.00045528362
1	0x3e38d564	0.18050152
2	0x151270e7	2.957353e-26
3	0x3f2e2415	0.68023807
4	0x3f8cac23	1.0990032
5	0xaa780e66	-2.203182e-13
6	0x3f4c3c8b	0.7977988
7	0x90329b26	-3.5223832e-29
8	0x3f328f2e	0.69749725
9	0x9bca4dae	-3.3468296e-22
10	0x3ed6e568	0.41971898
11	0xaf91014c	-2.6376268e-10
12	0x3f47e338	0.78081083
13	0x3df8a1d7	0.121402435
14	0xbef8c8a9	-0.48590592
15	0x3e6db6ca	0.2321426
16	0xbef964d6	-0.48709744
17	0xb5ce6dfc	-1.5380206e-06
18	0xbeb1cf5c	-0.34728515
19	0x3f42aa7e	0.760414
20	0x9897db74	-3.9254176e-24
21	0xbadae617	-0.0016700652
22	0xbea79dd3	-0.32737598
23	0x8c590988	-1.671994e-31
24	0x3d47e915	0.04880627
25	0xbf74fd81	-0.95699316
26	0x3f5b1fd5	0.85595447
27	0x80b34755	-1.6464143e-38
28	0x3f32f50a	0.6990515
29	0x3e17d5dc	0.14827675
30	0xbe747c8a	-0.23875633
31	0x80055f0b	-4.93272e-40
32	0x3df1db8e	0.11809455
33	0x3f4bfaa8	0.79679346
34	0x03cca6d2	1.2028342e-36
35	0xbea547e6	-0.32281417
36	0x3e3d248f	0.18470977
37	0x00055aaf	4.91709e-40
38	0xb5cf4a37	-1.5444301e-06
39	0x3f33690a	0.7008215
40	0x3f045b2e	0.5170163
41	0x256dd5bc	2.0628889e-16
42	0x3f4c71b9	0.79861027
43	0xa6c7c36e	-1.386137e-15
44	0x96259a20	-1.3377227e-25
45	0xbef84ce7	-0.48496172
46	0xbf63cd18	-0.88984823
47	0x3233757c	1.0445884e-08
48	0xbf202a25	-0.6256431
49	0x3f360bf0	0.71111965
50	0x3e61912d	0.22028036
51	0x3f10331c	0.56327987
52	0x3e966420	0.29373264
53	0xbdd1b0c0	-0.102387905
54	0x3f3732a4	0.71561646
55	0xbcb2e060	-0.021835506
56	0x94caacbc	-2.046492e-26
57	0xbf27ac13	-0.6549694
58	0x3eb71d10	0.3576436
59	0x9ee2e5ba	-2.4023693e-20
60	0x3e85d2f1	0.26137498
61	0xbe8280d6	-0.2548892
62	0x3f461faf	0.77392095
63	0xa77c25ae	-3.4992451e-15
64	0xbf07ccec	-0.5304706
65	0xc039a678	-2.9007854
66	0x3f513d1a	0.8173386
67	0x3e9147f5	0.2837521
68	0x3f92ff93	1.1484245
69	0xb1968824	-4.381052e-09
70	0xbf6cef82	-0.9255296
71	0xbf0d992f	-0.55311865
72	0xbf6d300e	-0.9265145
73	0xb2d0e755	-2.4319585e-08
74	0xb3fe87df	-1.18525115e-07
75	0xb79ee125	-1.8939909e-05
76	0xade850ee	-2.6411286e-11
77	0xbef99776	-0.48748368
78	0x3f00f09c	0.5036714
79	0xbed8938f	-0.42300078
80	0xbb26799d	-0.0025402077
81	0x00055fc9	4.93539e-40
82	0x3f1b3830	0.6063261
83	0xbf4d5f52	-0.8022357
84	0xbe997060	-0.29968548
85	0x3ed4c19a	0.41553956
86	0x3e122790	0.14272904
87	0xb4c1c74d	-3.6094062e-07
88	0x00055c6d	4.92334e-40
89	0x3f21e4d8	0.6323981
90	0xacea202c	-6.654252e-12
91	0x8f736be5	-1.2001605e-29
92	0xb1bf4c14	-5.5674807e-09
93	0xbec06274	-0.37575114
94	0xbed85c12	-0.42257744
95	0xbf55d6c0	-0.8353081
96	0x000560d8	4.93918e-40
97	0x22126465	1.9839838e-18
98	0x87010f42	-9.709365e-35
99	0xbf3cda24	-0.73770356
100	0xbba1b552	-0.004934945
101	0xbf312066	-0.6919006
102	0xbf28f7c9	-0.6600309
103	0xbec837f2	-0.39105183
104	0xc050e264	-3.2638178
105	0xb5adf309	-1.2960237e-06
106	0x3f9277f7	1.144286
107	0xbc54eb5f	-0.01299557
108	0x3e8bd292	0.2730909
109	0xb5d1f1ce	-1.5642088e-06
110	0xbabf33b7	-0.0014587556
111	0xa3e10605	-2.4397098e-17
112	0xb77dcba1	-1.5127386e-05
113	0xa686d272	-9.355159e-16
114	0xb601d648	-1.9347226e-06
115	0xbeec4cdc	-0.4615239
116	0xbc9b813c	-0.018982522
117	0xbec5bae4	-0.3861915
118	0xba26e283	-0.00063661503
119	0xb6365d86	-2.7174551e-06
120	0xbb5ef5f7	-0.0034021118
121	0x1eb26bca	1.8891064e-20
122	0xb93256d8	-0.00017007755
123	0x04f5d658	5.7796067e-36
124	0x3f49cf9f	0.7883243
125	0xb22b765a	-9.98042e-09
126	0x3f4a7414	0.7908337
127	0x3e8722d1	0.2639375

net.0.bias f4 [128]
0	0xb9d69a8d	-0.0004093241
1	0x3f362dc9	0.7116361
2	0x952b4fbd	-3.4596077e-26
3	0xbece82ab	-0.40334067
4	0xbf461d58	-0.77388525
5	0xb68012ac	-3.816871e-06
6	0x3e86ec79	0.2635229
7	0xa9f65f2f	-1.0941106e-13
8	0x3ecb6bac	0.39730585
9	0x9c4e9882	-6.8356794e-22
10	0x3f3ae851	0.73010737
11	0xb50e05c6	-5.2907524e-07
12	0xbe49838b	-0.19679086
13	0x3e68d4f8	0.22737491
14	0x3f0ef34f	0.5584001
15	0x3f544da9	0.82931
16	0x3f6e2b3f	0.9303474
17	0xbb75f475	-0.003752974
18	0x3eb1fe86	0.34764498
19	0xbee3e2b3	-0.44508895
20	0x98932cea	-3.804396e-24
21	0xbbe8ec15	-0.0071082213
22	0x3f694cc7	0.9113278
23	0xaf9d02d7	-2.8560151e-10
24	0x3f0970ce	0.5368775
25	0x3ec2dd36	0.38059396
26	0x3ea8de8f	0.329823
27	0xaa420db2	-1.7235413e-13
28	0x3f6499b4	0.8929703
29	0x3e79fbba	0.24412432
30	0x3e74b749	0.23898043
31	0xa3407e98	-1.0435148e-17
32	0x3edbb5e7	0.42912218
33	0xbe31d682	-0.17366984
34	0xa9cf3be3	-9.203035e-14
35	0x3f64c3c3	0.8936121
36	0x3e3b9b30	0.18320918
37	0xa60c57db	-4.8691324e-16
38	0xb8e5d224	-0.00010958713
39	0xbe28393c	-0.16428083
40	0x3f0d8ee1	0.5529614
41	0xa59a4380	-2.676048e-16
42	0xbef50318	-0.47853923
43	0xb4b23ac1	-3.3197833e-07
44	0x9653f4d0	-1.7121693e-25
45	0x3ef87f35	0.4853455
46	0x3f63f2ae	0.89042175
47	0xb42937a0	-1.5759588e-07
48	0x3eb6a7b0	0.3567481
49	0x3ef08441	0.46975902
50	0x3e18f4d8	0.1493715
51	0xbeaa9a0b	-0.3332065
52	0x3f0b5351	0.54424006
53	0x3efbfe8a	0.49217635
54	0x3eb91a62	0.3615294
55	0xbce03935	-0.027371028
56	0xa87a4031	-1.3891707e-14
57	0x3e81a45c	0.2532071
58	0xbe56c53d	-0.20973678
59	0xb16d75d3	-3.4555014e-09
60	0x3f23b5f5	0.6394952
61	0x3f59fe34	0.8515351
62	0xbe32cefe	-0.17461774
63	0xb5c1faba	-1.4452592e-06
64	0x3e4fbfef	0.2028806
65	0x3e277287	0.16352282
66	0x3e6a41be	0.22876641
67	0x3e8bd411	0.2731023
68	0xbf7109e1	-0.941557
69	0xb7a3864a	-1.9493647e-05
70	0x3f6d0f6f	0.92601675
71	0x3f0db52b	0.55354565
72	0x3e2e9387	0.17048465
73	0xb9188e61	-0.0001454889
74	0xb8ad3cdd	-8.2606195e-05
75	0xba7db56c	-0.0009678218
76	0xb6a09a68	-4.786347e-06
77	0x3ef9d6ec	0.48796785
78	0x3f29266a	0.6607424
79	0x3f00bfea	0.5029284
80	0xbc01d09e	-0.007923273
81	0x8d4d2003	-6.3209035e-31
82	0xbe425b0b	-0.18980043
83	0x3f7d7e8a	0.9902121
84	0x3e9997c5	0.29998603
85	0xbeb75260	-0.35805035
86	0x3ec92cfb	0.3929213
87	0xbab507d9	-0.0013811543
88	0x9b397652	-1.5341073e-22
89	0x3f3b9e37	0.7328829
90	0xb71af357	-9.235772e-06
91	0xac849260	-3.7679165e-12
92	0xb9407336	-0.00018353466
93	0x3f2deb00	0.67936707
94	0x3f3e3bad	0.7430981
95	0x3ef1ccca	0.47226554
96	0xa3d6df21	-2.3296425e-17
97	0xa24d145f	-2.7793465e-18
98	0x875b11d3	-1.6480967e-34
99	0x3f4ac2ee	0.7920369
100	0x3effb888	0.49945474
101	0x3f61a24d	0.88138276
102	0x3f29189b	0.6605317
103	0x3ec86b93	0.39144573
104	0x3e5c6a20	0.21524858
105	0xba4f350c	-0.0007904328
106	0xbf770076	-0.9648508
107	0xbcb6f431	-0.022333236
108	0x3ed81692	0.4220472
109	0xb96851e9	-0.00022155758
110	0xbc40bff1	-0.011764512
111	0xb5247c83	-6.127595e-07
112	0xbac98f27	-0.0015377746
113	0xa7f56924	-6.8115154e-15
114	0xb9a16ec5	-0.00030790843
115	0x3eec791c	0.4618615
116	0xbcaacc78	-0.020849451
117	0x3f26f2b9	0.65214115
118	0xbbbdc4b6	-0.005791272
119	0xb93f71bb	-0.00018257547
120	0xbc61cdff	-0.013782023
121	0xa328b177	-9.144878e-18
122	0xbb63c7e5	-0.0034756598
123	0xa5a6ae93	-2.8914706e-16
124	0x3f1127c4	0.567013
125	0xb8aad1bb	-8.145297e-05
126	0x3efc0c76	0.49228257
127	0x3ee73275	0.45155683

net.2.weight f4 [128, 128]
0	0x0005835b	5.06299e-40
1	0x80056231	-4.94402e-40
2	0x0005691a	4.96881e-40
3	0x80059b10	-5.14803e-40
4	0x0005842e	5.06595e-40
5	0x00057075	4.9952e-40
6	0x80062620	-5.6469e-40
7	0x00065ca7	5.8425e-40
8	0x80055e88	-4.93089e-40
9	0x8005824c	-5.05919e-40
10	0x82fd4dda	-3.7219693e-37
11	0x80056825	-4.96537e-40
12	0x800567bb	-4.96389e-40
13	0x00056331	4.9476e-40
14	0x00055944	4.912e-40
15	0x02a4d31e	2.421881e-37
16	0x800560c7	-4.93895e-40
17	0x0005d9ad	5.37265e-40
18	0x80055f15	-4.93286e-40
19	0x80057e51	-5.04491e-40
20	0x0005a502	5.18371e-40
21	0x0005a5c0	5.18637e-40
22	0x800121f9	-1.04023e-40
23	0x80059030	-5.10902e-40
24	0x80055a10	-4.91486e-40
25	0x0006a8f1	6.11618e-40
26	0x800562d1	-4.94626e-40
27	0x80056aed	-4.97535e-40
28	0x9495b3b0	-1.511603e-26
29	0x80055bc8	-4.92102e-40
30	0x00055a13	4.9149e-40
31	0x80059401	-5.12271e-40
32	0x00055e42	4.92991e-40
33	0x000558a1	4.90972e-40
34	0x000655f9	5.81854e-40
35	0x80055c69	-4.92328e-40
36	0x00055b10	4.91845e-40
37	0x8006700f	-5.91212e-40
38	0x8005b388	-5.23581e-40
39	0x00056a47	4.97303e-40
40	0x8005636b	-4.94842e-40
41	0x0005a462	5.18147e-40
42	0x800570f3	-4.99696e-40
43	0x0005828d	5.0601e-40
44	0x00055789	4.90579e-40
45	0x800564ee	-4.95384e-40
46	0x80055bcc	-4.92108e-40
47	0x000657db	5.8253e-40
48	0x800562e1	-4.94649e-40
49	0x80055f03	-4.93261e-40
50	0x0005610f	4.93996e-40
51	0x800571f6	-5.00059e-40
52	0x80056498	-4.95264e-40
53	0x00055b97	4.92034e-40
54	0x800564ee	-4.95384e-40
55	0x0006bf84	6.19716e-40
56	0x800589ea	-5.08652e-40
57	0x800573f1	-5.0077e-40
58	0x0005e69e	5.41907e-40
59	0x8005bf83	-5.27879e-40
60	0x80055f03	-4.93261e-40
61	0x800563ba	-4.94953e-40
62	0x8005677a	-4.96298e-40
63	0x0005afcc	5.22242e-40
64	0x00055eba	4.93159e-40
65	0x0006b81b	6.17058e-40
66	0x00055b82	4.92004e-40
67	0x00056432	4.95121e-40
68	0x8005e5ba	-5.41588e-40
69	0x8005b971	-5.25701e-40
70	0x80056335	-4.94766e-40
71	0x80055a9d	-4.91683e-40
72	0x00058677	5.07414e-40
73	0x80058f1b	-5.10514e-40
74	0x8006847b	-5.98538e-40
75	0x000593d9	5.12215e-40
76	0x0005adb0	5.21485e-40
77	0x800558c0	-4.91015e-40
78	0x001129bf	1.576179e-39
79	0x00064db3	5.78886e-40
80	0x80066dc2	-5.90387e-40
81	0x000583e6	5.06494e-40
82	0x80056e04	-4.98644e-40
83	0x8005576a	-4.90536e-40
84	0x00056142	4.94067e-40
85	0x00059f9d	5.16436e-40
86	0x00055b8f	4.92023e-40
87	0x8006c0b1	-6.20138e-40
88	0x00058b8c	5.09237e-40
89	0x08e04bff	1.3499376e-33
90	0x00064175	5.74495e-40
91	0x80059d89	-5.1569e-40
92	0x00059320	5.11956e-40
93	0x80055d9c	-4.92758e-40
94	0x80055c13	-4.92207e-40
95	0x00055f84	4.93442e-40
96	0x80058a14	-5.0871e-40
97	0x8005a0cf	-5.16865e-40
98	0x8005762b	-5.01568e-40
99	0x8005f163	-5.45771e-40
100	0x00055ecf	4.93188e-40
101	0x800557b5	-4.90641e-40
102	0x0005578c	4.90583e-40
103	0x00056294	4.9454e-40
104	0x8005cac5	-5.31917e-40
105	0x8005d4fc	-5.35582e-40
106	0x80066b34	-5.8947e-40
107	0x80055aee	-4.91797e-40
108	0x00055820	4.90791e-40
109	0x800694b4	-6.04358e-40
110	0x80057aa3	-5.03171e-40
111	0x80055f4c	-4.93364e-40
112	0x80055be3	-4.9214e-40
113	0x00065c02	5.84019e-40
114	0x000559c2	4.91377e-40
115	0x80056126	-4.94028e-40
116	0x800616fb	-5.59257e-40
117	0x0005624a	4.94437e-40
118	0x000563bf	4.9496e-40
119	0x00058392	5.06376e-40
120	0x8005a102	-5.16936e-40
121	0x00057f60	5.04871e-40
122	0x0005645e	4.95182e-40
123	0x00056e59	4.98763e-40
124	0x00291022	3.771043e-39
125	0x80056d42	-4.98372e-40
126	0x800558a8	-4.90981e-40
127	0x80066732	-5.88032e-40
128	0x0005cd74	5.3288e-40
129	0xa7136de1	-2.0459914e-15
130	0x00061061	5.56889e-40
131	0x80055944	-4.912e-40
132	0x80055b2e	-4.91887e-40
133	0x00057e1f	5.04421e-40
134	0xa192e0d5	-9.952857e-19
135	0x80056410	-4.95073e-40
136	0xa428f930	-3.6640263e-17
137	0x000582dc	5.06121e-40
138	0xaa14a55b	-1.320241e-13
139	0x0005a967	5.19948e-40
140	0x80055d2e	-4.92604e-40
141	0x00056161	4.9411e-40
142	0x05a27632	1.5277825e-35
143	0xaa5c624e	-1.9574032e-13
144	0xa58014eb	-2.2218635e-16
145	0x00057c5b	5.03788e-40
146	0x000560e7	4.9394e-40
147	0x00055c71	4.92339e-40
148	0x80060a95	-5.54809e-40
149	0x800592ad	-5.11795e-40
150	0xa70ad0ac	-1.9264468e-15
151	0x8005a434	-5.18082e-40
152	0x9e08537c	-7.217044e-21
153	0x00056221	4.9438e-40
154	0xa43d273e	-4.101608e-17
155	0x00059394	5.12119e-40
156	0xae891f50	-6.235601e-11
157	0x0000c336	7.0028e-41
158	0x0005634b	4.94797e-40
159	0x8005a3c8	-5.17931e-40
160	0x983f2b16	-2.4707924e-24
161	0x80055ba1	-4.92048e-40
162	0x8005943d	-5.12355e-40
163	0xa61fd53f	-5.545321e-16
164	0x000563c2	4.94964e-40
165	0x8006494b	-5.77306e-40
166	0x0005ba5e	5.26033e-40
167	0x0005bb49	5.26363e-40
168	0xa6fa034c	-1.7348128e-15
169	0x0005c4b7	5.29745e-40
170	0x000563a1	4.94918e-40
171	0x800609fb	-5.54593e-40
172	0x80058b95	-5.0925e-40
173	0x00055f03	4.93261e-40
174	0x9a21bb10	-3.3445128e-23
175	0x8005585f	-4.90879e-40
176	0x00055741	4.90478e-40
177	0xa78bdcea	-3.8819766e-15
178	0x00055c16	4.92212e-40
179	0x80056550	-4.95522e-40
180	0xa2f0fa1e	-6.5316952e-18
181	0x967357d4	-1.9657097e-25
182	0xa4037da1	-2.851251e-17
183	0x80058411	-5.06554e-40
184	0x800565c2	-4.95681e-40
185	0x80056288	-4.94524e-40
186	0x00055fce	4.93546e-40
187	0x000566fa	4.96119e-40
188	0xa621b94e	-5.610923e-16
189	0xa61414bb	-5.137591e-16
190	0x80055ce0	-4.92495e-40
191	0x80057626	-5.01561e-40
192	0x800557ec	-4.90718e-40
193	0x800558ef	-4.91081e-40
194	0x9fd69ede	-9.089535e-20
195	0x91a3d871	-2.5850258e-28
196	0x0005669c	4.95987e-40
197	0x8006b1ee	-6.14842e-40
198	0x9bc3ddf2	-3.2403473e-22
199	0x00051432	4.66422e-40
200	0x0005603c	4.937e-40
201	0x80069073	-6.02832e-40
202	0x8006989e	-6.05762e-40
203	0x80069c43	-6.07069e-40
204	0x0005594c	4.91211e-40
205	0x00055e0e	4.92918e-40
206	0xa9098af6	-3.054064e-14
207	0x8055a606	-7.865575e-39
208	0x800581cf	-5.05744e-40
209	0x00066ced	5.90088e-40
210	0x80055ed3	-4.93194e-40
211	0xa2d5e0ee	-5.797192e-18
212	0x0005585f	4.90879e-40
213	0x00056ff2	4.99336e-40
214	0x974f2092	-6.6926417e-25
215	0x800566c8	-4.96048e-40
216	0x0005e03f	5.39622e-40
217	0xabe63ca7	-1.6359317e-12
218	0x0005b9a8	5.25778e-40
219	0x80056f8d	-4.99194e-40
220	0x000579a2	5.02811e-40
221	0x9b86a8d7	-2.227755e-22
222	0x9eb3b5e3	-1.9027589e-20
223	0x00055fcd	4.93544e-40
224	0x8005ad3e	-5.21325e-40
225	0x80057596	-5.0136e-40
226	0x80058efa	-5.10468e-40
227	0x98230316	-2.1068814e-24
228	0x9a37f448	-3.8040842e-23
229	0x9fa480ed	-6.966999e-20
230	0x88fc279e	-1.5176012e-33
231	0x00055bb4	4.92074e-40
232	0x00055ac1	4.91734e-40
233	0x0005c0d3	5.2835e-40
234	0x000562d6	4.94633e-40
235	0x0006b94c	6.17485e-40
236	0x9ce64772	-1.5238591e-21
237	0x0006b492	6.1579e-40
238	0x0006aa1c	6.12037e-40
239	0x0005b9a6	5.25776e-40
240	0x8005a7f5	-5.19429e-40
241	0x000565c4	4.95684e-40
242	0x800687a4	-5.99672e-40
243	0x0005599f	4.91327e-40
244	0x80057aab	-5.03182e-40
245	0x98c93a55	-5.2016183e-24
246	0x00058715	5.07636e-40
247	0x80058c37	-5.09477e-40
248	0x0005c4af	5.29734e-40
249	0x80056b2f	-4.97628e-40
250	0x8006cef7	-6.25258e-40
251	0x00057d1c	5.04058e-40
252	0xa9e6cff1	-1.0250124e-13
253	0x80056c04	-4.97926e-40
254	0xa885d919	-1.4860117e-14
255	0x9e542280	-1.1230321e-20

net.2.bias f4 [128]
0	0x890f6bc8	-1.7263677e-33
1	0xab2bbee1	-6.10163e-13
2	0x3e0fde09	0.14049543
3	0xb8302a4f	-4.2001073e-05
4	0x3db4c89e	0.08827327
5	0x3e07838d	0.13233776
6	0x3d06d4d0	0.032917798
7	0x3bdacda9	0.0066773486
8	0xac042023	-1.8776168e-12
9	0xb2fbec23	-2.9327628e-08
10	0x3ca89d1f	0.020582734
11	0xbc99be7a	-0.018767584
12	0x91700d5d	-1.893678e-28
13	0xb03e57d7	-6.9246425e-10
14	0x38586c83	5.1599472e-05
15	0xbbe6e693	-0.0070465296
16	0x3d82d261	0.06387783
17	0xb4c3c89e	-3.646755e-07
18	0x3d8e7887	0.069565825
19	0x3db6614b	0.08905276
20	0x3d9f2d7f	0.077723496
21	0x3d56e574	0.052464917
22	0xa890f08a	-1.6091529e-14
23	0x3e16d4e0	0.14729643
24	0x3d2145dc	0.039373264
25	0xab44f525	-6.9973394e-13
26	0xbce77943	-0.028256064
27	0x0e6c64db	2.9137806e-30
28	0x80054825	-4.85058e-40
29	0xb3745369	-5.6886538e-08
30	0x3caadd5d	0.020857507
31	0xb1cf7225	-6.0374696e-09
32	0x937e866d	-3.2125584e-27
33	0xb9c8cf79	-0.00038301552
34	0x3e0e8462	0.13917688
35	0x3d4504d0	0.048100293
36	0x3cf55b65	0.029950807
37	0xb6fb9ed8	-7.4988748e-06
38	0x3e0a8b96	0.1352981
39	0x3df880f7	0.12133973
40	0x8413dd33	-1.7381337e-36
41	0x3de6d553	0.11271157
42	0x3d9ba3d1	0.07599605
43	0x851d938a	-7.409203e-36
44	0x3dffef76	0.124968454
45	0xb6da838f	-6.5122217e-06
46	0xb74d9a8f	-1.2254938e-05
47	0x3d86aeb7	0.06576293
48	0x3d9a02df	0.07520079
49	0x3b964e27	0.004586953
50	0xb71e0c5e	-9.420413e-06
51	0xbca720d5	-0.020401398
52	0x30555398	7.760774e-10
53	0xbc80aafc	-0.015706532
54	0x3d8646d3	0.065564774
55	0x3dc2596f	0.09489714
56	0xba9e3400	-0.001206994
57	0xb7684cbf	-1.3846146e-05
58	0xaf9c1751	-2.8392802e-10
59	0xabc07530	-1.3674947e-12
60	0x9d512d9b	-2.7684497e-21
61	0xbc06d3b7	-0.008229188
62	0x3c72ce3c	0.014819678
63	0x3c1d7952	0.009611445
64	0x3d46ffb9	0.04858372
65	0x3cd36c59	0.0258085
66	0xba0f09fc	-0.0005456505
67	0xbc2f3904	-0.010694746
68	0xb97ab897	-0.00023910623
69	0xa3e19048	-2.4455654e-17
70	0x3e0166e3	0.12636904
71	0xbcb77095	-0.02239255
72	0xbc23e90f	-0.010004296
73	0x3c40b11a	0.011760974
74	0x3d865ea9	0.06561024
75	0x85ce227c	-1.9384814e-35
76	0xbb1bc4ed	-0.00237685
77	0x3d89d487	0.067299895
78	0xb9f70345	-0.00047113947
79	0x00055829	4.90803e-40
80	0x3dd2c5b1	0.10291613
81	0x3da155af	0.07877671
82	0xa6d00b8c	-1.4436029e-15
83	0xb8d8b53e	-0.000103334416
84	0xb622b3f0	-2.4244619e-06
85	0x9df30b99	-6.4333556e-21
86	0x3d725d84	0.059171215
87	0xa7db888c	-6.0932755e-15
88	0x3d6d8a44	0.05799319
89	0xa5664a45	-1.9974483e-16
90	0x94a21031	-1.6364206e-26
91	0xb735e61b	-1.0842016e-05
92	0xaef093ed	-1.0940213e-10
93	0x3e04bc2d	0.12962408
94	0xa6ba952d	-1.2946777e-15
95	0xa08ddc01	-2.4031915e-19
96	0xbc0c8301	-0.008576156
97	0x37def859	2.6580108e-05
98	0x3e0919b7	0.13388716
99	0xbc32d2b3	-0.010914492
100	0x3dbe1833	0.092819594
101	0xbc085eb5	-0.008323361
102	0xbb38594f	-0.0028129404
103	0x36e5ba5c	6.846427e-06
104	0xbdf7904a	-0.12088068
105	0x9ee08b4c	-2.3774534e-20
106	0x3ce1d9cd	0.027569676
107	0x3c9bd456	0.019022148
108	0x3dd21132	0.10257186
109	0x8d932219	-9.067783e-31
110	0xbc93c1e4	-0.01803679
111	0x80055e23	-4.92947e-40
112	0x3d183f7f	0.03716993
113	0xab60019d	-7.9583025e-13
114	0xb74058c8	-1.1464763e-05
115	0xb7269e81	-9.931276e-06
116	0xba846b59	-0.0010102793
117	0x3db881a7	0.09009104
118	0xbc0f2f49	-0.008739301
119	0x3c8526d2	0.016253863
120	0x0005574f	4.90498e-40
121	0x931dcf18	-1.9918291e-27
122	0xb0760aba	-8.950952e-10
123	0x3d266e84	0.04063274
124	0xbccb1e19	-0.024794625
125	0x3df41679	0.11918349
126	0xb90ece80	-0.00013619103
127	0x3dcc4fff	0.099761955

net.4.weight f4 [15, 128]
0	0x3821181c	3.8407845e-05
1	0xb93e1e22	-0.00018131037
2	0xbcdd97ec	-0.027049981
3	0x39a5e25c	0.00031639903
4	0xbcf738c9	-0.030178444
5	0x3cf39470	0.029733866
6	0xbdf532e0	-0.11972594
7	0x3e17d4f9	0.14827336
8	0x2bf7ead7	1.7615587e-12
9	0x36096ac0	2.0476728e-06
10	0x3e5e3c07	0.21702586
11	0xbdd10f7b	-0.10208031
12	0xb4ac9309	-3.214448e-07
13	0x383001de	4.196341e-05
14	0xae266a1d	-3.7838278e-11
15	0x3c29c426	0.010361707
16	0x3e140cfc	0.14458078
17	0x393f2846	0.00018230182
18	0xbd856c3c	-0.06514785
19	0x3e35cbc1	0.17753507
20	0x3e4d6152	0.20056656
21	0x3d435048	0.047683984
22	0xa920caaf	-3.5702937e-14
23	0x3cff2c3f	0.031149028
24	0x3f09319b	0.53591317
25	0x37974bfe	1.803599e-05
26	0xbd189096	-0.037247263
27	0x80055f90	-4.93459e-40
28	0x8005639e	-4.94913e-40
29	0xb8d1f99b	-0.00010012389
30	0xbef2a895	-0.47394243
31	0xb68aa75e	-4.1322046e-06
32	0x80055d67	-4.92684e-40
33	0x3cfb10ba	0.030647624
34	0x3e22a80f	0.15884422
35	0x3ed70901	0.41999057
36	0xbd1600f6	-0.03662201
37	0x35fbd676	1.8763374e-06
38	0x3db0d2e2	0.08633973
39	0x3e510b58	0.20414484
40	0x000563a1	4.94918e-40
41	0x3d49fe20	0.049314618
42	0x3e416789	0.18887152
43	0x04eb16f1	5.5269303e-36
44	0x3d761bc3	0.06008507
45	0xbaff047d	-0.0019456294
46	0x3afbee13	0.0019220732
47	0x3e71d680	0.23616982
48	0x3e1ff92b	0.15622394
49	0xbe033383	-0.12812619
50	0xb3a6dded	-7.7703454e-08
51	0xbc94b319	-0.018151807
52	0x30fe274e	1.8492103e-09
53	0xbcf62d02	-0.030050758
54	0x3e223efe	0.15844342
55	0x3e3a1107	0.18170558
56	0x3c31a490	0.010842457
57	0xbbb1d62b	-0.005427142
58	0xbb2fb847	-0.0026812719
59	0xb9c571c3	-0.00037659527
60	0x360eea68	2.1296091e-06
61	0x3c09c7cf	0.0084094545
62	0xbefeb04a	-0.49743873
63	0x3ca9d84d	0.020733023
64	0x3e360e39	0.17778863
65	0x3e6be212	0.23035458
66	0xba3967cc	-0.0007072657
67	0x3e3689df	0.17826031
68	0x3aafbec0	0.0013408288
69	0xad744b6c	-1.3886541e-11
70	0x3e5c434b	0.21510045
71	0xbc8b76be	-0.017024394
72	0xbcb4603c	-0.022018544
73	0x3e0ae751	0.13564803
74	0x3e463117	0.19354664
75	0xb2200908	-9.315279e-09
76	0xbc9eacc9	-0.0193695
77	0xbdfa5992	-0.122241154
78	0x3b976104	0.0046197195
79	0x2730d80f	2.4542032e-15
80	0x3e35e369	0.17762531
81	0x3ddaf69b	0.106915675
82	0xb5b86d83	-1.374094e-06
83	0x3053293d	7.6819956e-10
84	0xbab1bfb0	-0.0013561156
85	0x80062553	-5.64402e-40
86	0xbccd2a4d	-0.025044585
87	0x24266802	3.608361e-17
88	0x3e6ff496	0.23433146
89	0x392a8286	0.00016261087
90	0x00055f3b	4.9334e-40
91	0x3831b771	4.237093e-05
92	0x2c79d825	3.5505013e-12
93	0xbdc4ca9f	-0.096089594
94	0x2a83418b	2.3315754e-13
95	0x9c622685	-7.4826913e-22
96	0xbcd0b600	-0.02547741
97	0x245ad4fc	4.745162e-17
98	0xbdc8dec3	-0.098081134
99	0x3b644ea8	0.0034836922
100	0xbd7ae0e8	-0.061249644
101	0x3bf9744c	0.0076127406
102	0x3cca1315	0.024667302
103	0xb7212638	-9.605246e-06
104	0xbfb7fee0	-1.4374657
105	0x9b9f1569	-2.631818e-22
106	0x3e8001f5	0.25001493
107	0xbc1808d7	-0.009279451
108	0xbddcdaf3	-0.10783949
109	0x00056187	4.94164e-40
110	0x3e7f5eaf	0.24938463
111	0x02203756	1.1770824e-37
112	0xbba9aadc	-0.0051778387
113	0x8c41593e	-1.4895035e-31
114	0x35c2c4ec	1.4511438e-06
115	0x3784ccf2	1.5831061e-05
116	0x3a5cc372	0.00084214576
117	0xbca57e9e	-0.020201977
118	0xb9ea5d9d	-0.00044701705
119	0x3e87ee77	0.26549122
120	0x00056875	4.9665e-40
121	0x3198ec8f	4.450676e-09
122	0x2e3bf175	4.2733334e-11
123	0xbd3c1d84	-0.045926586
124	0x3d1891fa	0.03724859
125	0x3e91324e	0.28358692
126	0x3c802cb1	0.01564631
127	0xbd909010	-0.07058728
128	0x8005e7ec	-5.42375e-40
129	0x8005c409	-5.29502e-40
130	0x3822be75	3.8801187e-05
131	0x000565cc	4.95695e-40
132	0x38c311f8	9.3016715e-05
133	0x36d22a2a	6.2633962e-06
134	0xb828cc07	-4.0244337e-05
135	0xb87ea284	-6.0709674e-05
136	0x80064559	-5.7589e-40
137	0x800684e2	-5.98682e-40
138	0xb8ccee23	-9.7718344e-05
139	0xb7d38274	-2.5213907e-05
140	0x00066e9c	5.90692e-40
141	0x0005b190	5.22875e-40
142	0x800579f9	-5.02933e-40
143	0x800682fd	-5.98003e-40
144	0xb80ed9f3	-3.405842e-05
145	0x80068e1e	-6.01995e-40
146	0x3862bcd6	5.4058466e-05
147	0xb6ff0846	-7.6005554e-06
148	0xb8a9a408	-8.089101e-05
149	0xb70b2a5d	-8.294909e-06
150	0x0ef4d4f4	6.035571e-30
151	0xb83263c4	-4.253142e-05
152	0xb894099c	-7.05898e-05
153	0x80055ab2	-4.91713e-40
154	0x34d0752b	3.882827e-07
155	0x000558aa	4.90984e-40
156	0x00056868	4.96631e-40
157	0x8005efb8	-5.45172e-40
158	0x38aabd6e	8.141516e-05
159	0x0006d3de	6.27017e-40
160	0x00064ef4	5.79336e-40
161	0x8005ab39	-5.206e-40
162	0xb8487740	-4.7794776e-05
163	0xb4cffe4c	-3.874178e-07
164	0x383771ba	4.3736516e-05
165	0x8005f3a5	-5.4658e-40
166	0x38d3d792	0.00010101417
167	0xb7386f8d	-1.0993227e-05
168	0x80065b37	-5.83735e-40
169	0x37c3a8fe	2.3324505e-05
170	0xb7c28959	-2.319056e-05
171	0x000573e6	5.00754e-40
172	0xb6d6eedb	-6.4055034e-06
173	0x8005d700	-5.36305e-40
174	0x80057cbe	-5.03927e-40
175	0xb874457a	-5.823884e-05
176	0x36f0452a	7.160609e-06
177	0x391514c6	0.00014217486
178	0x000559eb	4.91434e-40
179	0x23f29256	2.6299668e-17
180	0x80060d7a	-5.55847e-40
181	0x2754af53	2.9515954e-15
182	0xb7914173	-1.7315824e-05
183	0xb8934bb8	-7.02361e-05
184	0x80063799	-5.70958e-40
185	0x800590a8	-5.1107e-40
186	0x0006d7a0	6.28365e-40
187	0x8006a62f	-6.10628e-40
188	0x8006b212	-6.14893e-40
189	0x00056d5d	4.9841e-40
190	0x390009c4	0.00012210669
191	0xb6959aba	-4.4585586e-06
192	0x36ee2c37	7.0981e-06
193	0xb7ada2b2	-2.0698968e-05
194	0x8005fc70	-5.49735e-40
195	0xb829dc01	-4.0497634e-05
196	0x80062cc2	-5.67069e-40
197	0x000561e8	4.943e-40
198	0xb880c926	-6.1409824e-05
199	0x245e1c50	4.8162558e-17
200	0x1bcd30c0	3.394591e-22
201	0xb3df4c3d	-1.03981144e-07
202	0xb7d39fed	-2.5227631e-05
203	0x00055caa	4.92419e-40
204	0x2d4a0a34	1.1484636e-11
205	0x38ba080a	8.8706685e-05
206	0x00061052	5.56868e-40
207	0x00065b73	5.83819e-40
208	0xb8803702	-6.1137616e-05
209	0xb81e028d	-3.767251e-05
210	0x80068ab8	-6.00776e-40
211	0x000575ad	5.01392e-40
212	0x0005ba00	5.25902e-40
213	0x0005cc95	5.32568e-40
214	0xb642a04e	-2.9001562e-06
215	0x000560af	4.93861e-40
216	0xb84129f9	-4.6053876e-05
217	0x0005d003	5.33798e-40
218	0x8005aaad	-5.20404e-40
219	0x80064cea	-5.78605e-40
220	0x80061559	-5.58671e-40
221	0x37952fec	1.77845e-05
222	0x00064d51	5.78749e-40
223	0x0005ba0d	5.2592e-40
224	0x00066fef	5.91167e-40
225	0x8005cecb	-5.33361e-40
226	0x390a8f11	0.00013214002
227	0x8006afe7	-6.14115e-40
228	0x388dd21b	6.762539e-05
229	0x8006132d	-5.57892e-40
230	0x8b13497e	-2.836646e-32
231	0x000567c8	4.96407e-40
232	0x000583c1	5.06442e-40
233	0x8005a3f5	-5.17994e-40
234	0xb86a2de6	-5.5832694e-05
235	0xb7a0ab6d	-1.9153313e-05
236	0xb861fcf6	-5.387977e-05
237	0x00058a6f	5.08838e-40
238	0xb8630d18	-5.4133212e-05
239	0x8005d088	-5.33984e-40
240	0xb85ec279	-5.311004e-05
241	0x000576d0	5.018e-40
242	0x0005e157	5.40014e-40
243	0x0005e003	5.39538e-40
244	0x80064bd4	-5.78215e-40
245	0x38b81da9	8.779328e-05
246	0x800678e2	-5.94378e-40
247	0x310aaece	2.0181008e-09
248	0x80068268	-5.97794e-40
249	0x8005cb94	-5.32208e-40
250	0x1f044745	2.801104e-20
251	0x38496ebf	4.8025275e-05
252	0xae912579	-6.600493e-11
253	0xb808749d	-3.253353e-05
254	0x800607eb	-5.53853e-40
255	0x387edd11	6.0764203e-05

net.4.bias f4 [15]
0	0x3d88c3d1	0.06677974
1	0x375cb2bf	1.3154639e-05
2	0x3cbf412b	0.023346504
3	0xbcfa6acf	-0.030568508
4	0x3d8e75cd	0.069560625
5	0x3d24a266	0.040193938
6	0x3b752719	0.0037407337
7	0x3c6a2b7e	0.014292596
8	0x3e0f91ff	0.14020537
9	0x3da9b7a6	0.08286981
10	0x3c6739c9	0.014112898
11	0x3d3ef4a9	0.046620045
12	0x3da269ab	0.07930311
13	0x3d7205ee	0.059087686
14	0x3e03bea9	0.128657

exp_avg f4 [128, 1]
0	0x325a840c	1.2719294e-08
1	0x3a963830	0.0011460837
2	0x0c7bd79c	1.9401219e-31
3	0xbb1f0a14	-0.0024267482
4	0xbb268d81	-0.0025413933
5	0xa23e4ec6	-2.5791504e-18
6	0x39ec6925	0.00045091767
7	0x8843e6a4	-5.8951795e-34
8	0x3a567c72	0.0008181996
9	0x940f9382	-7.248746e-27
10	0x3a85db52	0.0010212457
11	0xa75306b5	-2.9285768e-15
12	0xba5158e4	-0.0007985963
13	0x3a5c5e69	0.0008406402
14	0x3aeb3185	0.0017943835
15	0x3aa1f2f9	0.0012355737
16	0x3ab2b5ea	0.0013634537
17	0xad94d89d	-1.6921848e-11
18	0x3ae79bc7	0.0017670327
19	0xbb20ea7e	-0.002455383
20	0x1056e8a3	4.2383275e-29
21	0xb2903c4e	-1.679123e-08
22	0x3aa228b1	0.0012371746
23	0x857bd9b3	-1.1841948e-35
24	0x3a872212	0.0010309836
25	0xb9c57ad7	-0.0003766629
26	0x3a3b3610	0.000714154
27	0x80000037	-7.7e-44
28	0x3a6d338a	0.00090485124
29	0x3a84eac7	0.001014077
30	0x3abf1039	0.0014576978
31	0x80000000	-0.0
32	0x3a8800ab	0.0010376176
33	0xb9d44d33	-0.0004049331
34	0x00001af1	9.665e-42
35	0x3ae79e77	0.0017671128
36	0x3a0d32b2	0.00053862773
37	0x00000000	0.0
38	0xad8ef28f	-1.6251249e-11
39	0xb948b15c	-0.00019139558
40	0x3a5ea371	0.00084929826
41	0x1c8bafb8	9.243671e-22
42	0xbba54f70	-0.00504487
43	0x9e9c76bd	-1.6566251e-20
44	0x8d0457ca	-4.0781313e-31
45	0x3b027aa5	0.0019909528
46	0x3b05f3ca	0.00204395
47	0x2aacff8f	3.0730667e-13
48	0x3928472e	0.00016048245
49	0x3a1431e1	0.00056531845
50	0x3a02d314	0.00049905595
51	0xbb2d7e18	-0.0026472863
52	0x3a96d732	0.0011508225
53	0x3a80f15b	0.0009837555
54	0x3a13189a	0.0005611271
55	0xb46b85ea	-2.1934798e-07
56	0x8cc83183	-3.0844678e-31
57	0xb9b6c110	-0.00034857588
58	0xba51900e	-0.0007994183
59	0x96c0bff0	-3.1140403e-25
60	0x3a832720	0.0010006167
61	0x3aa057f2	0.0012233241
62	0xb9bfe1f2	-0.000365987
63	0x9f465b37	-4.2003582e-20
64	0xb92de4fc	-0.00016583869
65	0x37847790	1.5791302e-05
66	0x3a26da32	0.0006364911
67	0x3a271a02	0.000637442
68	0xba295e82	-0.0006460921
69	0xa9573e9a	-4.7793888e-14
70	0x3af1e10c	0.001845391
71	0x3b02932c	0.0019924147
72	0xb8db9eda	-0.00010472322
73	0xaa9438f0	-2.632959e-13
74	0xabb2c368	-1.2701897e-12
75	0xaf58dab3	-1.9722783e-10
76	0xa5aceba5	-2.9996923e-16
77	0x3b10961d	0.002206213
78	0x3aa579e4	0.0012624827
79	0x3ac3292e	0.0014889592
80	0xb2dfbee2	-2.604742e-08
81	0x00000000	0.0
82	0xba3b5553	-0.0007146198
83	0x3ae09ac4	0.0017135968
84	0x3aeac2a0	0.0017910786
85	0xb8b583a7	-8.655275e-05
86	0x3a51d75d	0.0008004809
87	0xac8ba7ac	-3.969233e-12
88	0x00000000	0.0
89	0x3a5145cb	0.0007983117
90	0xa4ae2bb4	-7.553451e-17
91	0x8788787f	-2.0533827e-34
92	0xa98e4332	-6.317723e-14
93	0x3ab48e7d	0.0013775375
94	0x3aa23afb	0.0012377197
95	0x3943f903	0.00018689413
96	0x00000000	0.0
97	0x9ba376e4	-2.704292e-22
98	0x0034c411	4.845781e-39
99	0x3afdfa55	0.0019376973
100	0x3a7b46a9	0.00095854193
101	0x3aecb537	0.0018059377
102	0x3ae84573	0.0017720893
103	0x3af7d410	0.0018907804
104	0x383fafcb	4.570167e-05
105	0xad70b6a4	-1.3682975e-11
106	0xb9eeabfe	-0.00045523042
107	0xb40ce6dd	-1.3122504e-07
108	0x3a5dee38	0.00084659783
109	0xad91529d	-1.652128e-11
110	0xb27f0f08	-1.4846371e-08
111	0x9bb782d5	-3.0359359e-22
112	0xaf2e884a	-1.5873627e-10
113	0x9e939962	-1.5627668e-20
114	0xadb2e894	-2.0339543e-11
115	0x3af0ec92	0.001838105
116	0xb44ca4be	-1.9058913e-07
117	0x3ac704dd	0.0015183944
118	0xb1e2f257	-6.6050165e-09
119	0xadfb4412	-2.8565626e-11
120	0xb313c498	-3.4404906e-08
121	0x9a4e64c4	-4.26812e-23
122	0xb0ea0ff2	-1.7030273e-09
123	0x00013aed	1.12974e-40
124	0x3a6848fb	0.00088609726
125	0xa9f24637	-1.0759139e-13
126	0x3a3c8b7a	0.00071924145
127	0x3a726e29	0.00092479825

exp_avg_sq f4 [128, 1]
0	0x280356cf	7.2907844e-15
1	0x379a531d	1.8396933e-05
2	0x27673445	3.2086025e-15
3	0x382bb663	4.0939438e-05
4	0x3922a694	0.00015511579
5	0x2b29b252	6.028833e-13
6	0x36a52893	4.9221067e-06
7	0x2a2433c9	1.4584093e-13
8	0x3737a5e4	1.0946274e-05
9	0x28185665	8.456429e-15
10	0x376b0adf	1.4009623e-05
11	0x2ba7534d	1.1889184e-12
12	0x36e683bd	6.8698705e-06
13	0x372d8f9a	1.0345038e-05
14	0x38274e6c	3.988894e-05
15	0x37b1171a	2.1110802e-05
16	0x37d2d1c8	2.5131638e-05
17	0x2bc406aa	1.3928487e-12
18	0x3824b4d2	3.926905e-05
19	0x384c3c76	4.86937e-05
20	0x279b164e	4.3045325e-15
21	0x2fbcd99b	3.435162e-10
22	0x3799745e	1.8293209e-05
23	0x29c18b4a	8.5950846e-14
24	0x376af0f5	1.4003589e-05
25	0x3644ca6a	2.9324096e-06
26	0x37120633	8.7037215e-06
27	0x29d4c827	9.449412e-14
28	0x3739cfc9	1.1075238e-05
29	0x37757ea8	1.4632627e-05
30	0x37eb8175	2.8074466e-05
31	0x2915c6e5	3.325716e-14
32	0x376f82e3	1.42759845e-05
33	0x36483ced	2.9837786e-06
34	0x2997d31d	6.7423694e-14
35	0x381b7a59	3.7068825e-05
36	0x3695b589	4.4616795e-06
37	0x2981cb14	5.763979e-14
38	0x2c996c3b	4.3605375e-12
39	0x350293fd	4.8644125e-07
40	0x372420fc	9.7828415e-06
41	0x26a64875	1.1538203e-15
42	0x3910b0c1	0.00013798756
43	0x2b0c0912	4.975058e-13
44	0x284de1f5	1.1428783e-14
45	0x385de7c5	5.2906358e-05
46	0x38759d8a	5.855927e-05
47	0x290117a6	2.8664266e-14
48	0x352b33eb	6.3778015e-07
49	0x36a8e0bf	5.032954e-06
50	0x368a6776	4.124765e-06
51	0x383d9799	4.5202298e-05
52	0x379fa8a8	1.9032814e-05
53	0x3747c714	1.1907676e-05
54	0x36bd4cde	5.6415874e-06
55	0x3005e57b	4.871123e-10
56	0x2a443953	1.7428185e-13
57	0x369976f5	4.5736037e-06
58	0x36fb193c	7.4833206e-06
59	0x2aa40e22	2.914206e-13
60	0x376881c5	1.3858492e-05
61	0x37a57245	1.9722744e-05
62	0x35eb6e00	1.7540879e-06
63	0x2b06faa1	4.795418e-13
64	0x3648cbd6	2.992097e-06
65	0x33083f57	3.1722575e-08
66	0x36cbfde9	6.0794305e-06
67	0x36cf80df	6.1840833e-06
68	0x38dfc536	0.00010670202
69	0x2be6fbea	1.6412403e-12
70	0x38657555	5.470713e-05
71	0x3859d85f	5.1938343e-05
72	0x3516d89e	5.6194574e-07
73	0x2c07f548	1.9320812e-12
74	0x2c2e4568	2.4765415e-12
75	0x2cec14a9	6.709817e-12
76	0x2b6ffc13	8.525968e-13
77	0x388264e0	6.2176725e-05
78	0x37b4b290	2.1540822e-05
79	0x37ec67b4	2.8181683e-05
80	0x2d93cc2c	1.6802636e-11
81	0x2915f189	3.3294144e-14
82	0x366960d8	3.4776076e-06
83	0x381e7faf	3.778905e-05
84	0x3825d661	3.953872e-05
85	0x37417192	1.1530139e-05
86	0x370ccf4b	8.392914e-06
87	0x2bc5d091	1.4055581e-12
88	0x294086cd	4.2749485e-14
89	0x3729ea4d	1.0127737e-05
90	0x2b71bccc	8.588241e-13
91	0x2a1fee2d	1.4204671e-13
92	0x2b72cbec	8.625867e-13
93	0x37bf68da	2.28178e-05
94	0x37967224	1.7934544e-05
95	0x35214d79	6.008991e-07
96	0x295a8b59	4.852659e-14
97	0x289a16d9	1.7107343e-14
98	0x28d8f8e1	2.4088751e-14
99	0x38525e94	5.0155984e-05
100	0x3749571e	1.2000817e-05
101	0x38287ad9	4.0168732e-05
102	0x38325cb6	4.252485e-05
103	0x383ef83a	4.553071e-05
104	0x337831f8	5.7787446e-08
105	0x2c8850e3	3.8743327e-12
106	0x38ba9266	8.89644e-05
107	0x2eec88f6	1.07563666e-10
108	0x373c3a0a	1.12191865e-05
109	0x2c86637b	3.8195536e-12
110	0x2e137c7f	3.3534505e-11
111	0x2acf3e0d	3.6813643e-13
112	0x2caa6492	4.842856e-12
113	0x28776c30	1.3734714e-14
114	0x2c9eb086	4.510228e-12
115	0x383ae353	4.4557568e-05
116	0x302aa55b	6.2080624e-10
117	0x37f1aa56	2.8808758e-05
118	0x2d0d5ea7	8.035939e-12
119	0x2c9f409e	4.5262257e-12
120	0x2eb24881	8.107382e-11
121	0x28e4d03a	2.5403389e-14
122	0x31c32ef3	5.6805844e-09
123	0x29e7f5f4	1.0301127e-13
124	0x373ef439	1.1381745e-05
125	0x2c163360	2.13448e-12
126	0x3704e489	7.921023e-06
127	0x37454ccf	1.1759998e-05

exp_avg f4 [128]
0	0x32e0d9ac	2.6176018e-08
1	0x3a849955	0.0010116497
2	0x8d47367b	-6.138719e-31
3	0xbb6b8886	-0.0035939529
4	0xbb4d3411	-0.0031311552
5	0xae309bda	-4.015619e-11
6	0x39b130c2	0.00033796398
7	0xa1bb52b7	-1.2693507e-18
8	0x3a294981	0.00064577913
9	0x9419d1e4	-7.7659196e-27
10	0x3a6b28ca	0.00089706166
11	0xacc53a89	-5.6055755e-12
12	0xba5b9411	-0.00083762506
13	0x3a41d8c7	0.0007394668
14	0x3addc8ed	0.0016920842
15	0x3a914505	0.0011083191
16	0x3aa495ce	0.0012556852
17	0xb324473b	-3.824901e-08
18	0x3ad76310	0.0016432721
19	0xbb6acbfd	-0.0035827153
20	0x111bec36	1.2300132e-28
21	0xb3990083	-7.124711e-08
22	0x3a9550b8	0.0011391854
23	0xa7706699	-3.336231e-15
24	0x3a70d62b	0.0009187187
25	0xba834885	-0.0010016119
26	0x3a127f62	0.00055884395
27	0xa213e881	-2.0045301e-18
28	0x3a4e0686	0.00078592484
29	0x3a64320a	0.0008704966
30	0x3ab297a9	0.001362552
31	0x9b1e65ee	-1.3102389e-22
32	0x3a704577	0.00091656245
33	0xb9f74df6	-0.00047169597
34	0xa1a99b66	-1.1493019e-18
35	0x3ad3fa28	0.0016172575
36	0x39f0a498	0.00045899
37	0x9ddee061	-5.8994913e-21
38	0xb099b35e	-1.1183194e-09
39	0xb98ab4b7	-0.00026456054
40	0x3a40d824	0.0007356426
41	0x9d85cfdb	-3.5419724e-21
42	0xbbf3c28d	-0.0074389637
43	0xac7836f4	-3.5273425e-12
44	0x8f25b971	-8.170843e-30
45	0x3af3f75a	0.0018613145
46	0x3aff5c89	0.0019482534
47	0xac731a1a	-3.4546866e-12
48	0x39129382	0.00013978596
49	0x39ee364f	0.0004543536
50	0x39da0d12	0.00041589938
51	0xbb805076	-0.0039158417
52	0x3a82fade	0.0009992977
53	0x3a6c9646	0.0009025078
54	0x39e6448a	0.00043920084
55	0xb4933a12	-2.7423135e-07
56	0xa040e8ce	-1.6340061e-19
57	0xba543d09	-0.0008096253
58	0xba99867d	-0.0011713054
59	0xa929067a	-3.7531156e-14
60	0x3a63a0bc	0.0008683314
61	0x3a948eb0	0.0011334028
62	0xb9d072ed	-0.00039758478
63	0xad86308f	-1.52556e-11
64	0xb9791b19	-0.00023756585
65	0xba4c4908	-0.0007792865
66	0x39f8741d	0.00047388757
67	0x3a0bb4e3	0.00053293834
68	0xba2684cb	-0.0006352185
69	0xaf5e8c3e	-2.0240606e-10
70	0x3ae80220	0.0017700829
71	0x3af55d7d	0.0018719878
72	0x38ccb6af	9.7615055e-05
73	0xb0cdd7da	-1.4977062e-09
74	0xb0693100	-8.483454e-10
75	0xb229658b	-9.860183e-09
76	0xae5d4c72	-5.031748e-11
77	0x3b072851	0.0020623396
78	0x3a8faf4f	0.001096228
79	0x3ab98743	0.0014154691
80	0xb3ac1dad	-8.014772e-08
81	0x8578d1f3	-1.16994655e-35
82	0xba6de31f	-0.0009074676
83	0x3ad59a36	0.0016296569
84	0x3adb3a29	0.0016725707
85	0xb81a0686	-3.6722537e-05
86	0x3a39b563	0.00070842187
87	0xb27493d9	-1.4236286e-08
88	0x932810a2	-2.1212782e-27
89	0x3a32062e	0.0006791082
90	0xaed3d900	-9.633716e-11
91	0xa4459855	-4.2846596e-17
92	0xb102dacd	-1.9041864e-09
93	0x3aaa61ea	0.0012999151
94	0x3a9872b3	0.0011630863
95	0x3955a41e	0.00020374401
96	0x9baf1e07	-2.8970726e-22
97	0x1c0d52f0	4.676018e-22
98	0x0095c462	1.3753938e-38
99	0x3aee0919	0.001816067
100	0x3a622ab1	0.00086275773
101	0x3adeefef	0.0017008762
102	0x3ade6000	0.0016965866
103	0x3ae6b7cd	0.0017602384
104	0xb9fd6df7	-0.0004833785
105	0xb20a83d5	-8.062632e-09
106	0xb9cd63f7	-0.00039175127
107	0xb470baa6	-2.2419644e-07
108	0x3a4064fa	0.00073392654
109	0xb11c3a50	-2.2734135e-09
110	0xb3fe7f96	-1.18510044e-07
111	0xace4b082	-6.499746e-12
112	0xb2869faa	-1.567226e-08
113	0x9fa1df7a	-6.855586e-20
114	0xb15880e7	-3.150541e-09
115	0x3ae2cce1	0.001730349
116	0xb4606300	-2.0897642e-07
117	0x3ab8521e	0.0014062559
118	0xb37d55dc	-5.898424e-08
119	0xb100f64f	-1.8766462e-09
120	0xb414b98f	-1.385108e-07
121	0x9b7f6894	-2.1126897e-22
122	0xb3155bb5	-3.4775173e-08
123	0x9d8560f0	-3.5305038e-21
124	0x3a404204	0.0007334056
125	0xb065dafb	-8.3620905e-10
126	0x3a14ceb1	0.00056765514
127	0x3a50281f	0.0007940549

exp_avg_sq f4 [128]
0	0x293d2804	4.200114e-14
1	0x38cc4a22	9.741286e-05
2	0x29311dfc	3.9327902e-14
3	0x38874ed4	6.4519845e-05
4	0x3969bf6e	0.00022291925
5	0x2c9a60e8	4.387702e-12
6	0x37ce0f88	2.4564346e-05
7	0x2b3a617c	6.621576e-13
8	0x3877cec2	5.9081947e-05
9	0x290349d9	2.9151896e-14
10	0x38a08d9a	7.65577e-05
11	0x2c728834	3.4465876e-12
12	0x37a1e04b	1.929714e-05
13	0x38689fda	5.5461984e-05
14	0x393f197f	0.00018224677
15	0x38e8c60c	0.00011099511
16	0x39015a38	0.00012336008
17	0x2dfe0f7d	2.8883335e-11
18	0x3941fa07	0.00018499057
19	0x38a45ba2	7.837197e-05
20	0x29331d85	3.977159e-14
21	0x30ff333c	1.8568254e-09
22	0x38bddd3a	9.053429e-05
23	0x2b2d6c60	6.1612347e-13
24	0x389c0bda	7.440867e-05
25	0x38824fa9	6.213721e-05
26	0x384a8965	4.828851e-05
27	0x2b35865d	6.4490584e-13
28	0x387c3bc9	6.013716e-05
29	0x38a6e4c8	7.958111e-05
30	0x39120557	0.00013925634
31	0x2ac3d79f	3.4788576e-13
32	0x38a120ee	7.683212e-05
33	0x371387ff	8.793547e-06
34	0x2aca8e61	3.5981203e-13
35	0x394b1fc4	0.00019371422
36	0x37c446d1	2.3397997e-05
37	0x2afa7a9d	4.4494e-13
38	0x2ddf6ebe	2.5401344e-11
39	0x35a504ec	1.229489e-06
40	0x385d7071	5.2795225e-05
41	0x2907d0e4	3.0157205e-14
42	0x396d4ef3	0.00022631492
43	0x2c5df571	3.1542236e-12
44	0x29a98fba	7.53004e-14
45	0x39760c17	0.00023464892
46	0x3963ac1d	0.00021712524
47	0x291879b1	3.385633e-14
48	0x36cbe261	6.0762254e-06
49	0x37e97f03	2.7834909e-05
50	0x37b9ca75	2.2147995e-05
51	0x38977df0	7.223699e-05
52	0x38d1b2c6	9.999196e-05
53	0x388039f7	6.1143124e-05
54	0x38004ec6	3.059094e-05
55	0x313d2eb4	2.7529667e-09
56	0x2b21e626	5.7518085e-13
57	0x38cf87f0	9.8958495e-05
58	0x373a6b61	1.1111465e-05
59	0x2bfd550a	1.8000334e-12
60	0x389dbd81	7.521641e-05
61	0x38cfc4a0	9.9071534e-05
62	0x36a380f3	4.87279e-06
63	0x2c89390d	3.900108e-12
64	0x3889986f	6.561062e-05
65	0x37e8a786	2.7734564e-05
66	0x3811ee54	3.4792654e-05
67	0x380fb321	3.4260684e-05
68	0x390a40be	0.00013184824
69	0x2d07ed77	7.726589e-12
70	0x39460152	0.00018883243
71	0x3968b45d	0.00022192435
72	0x386b6f7d	5.6132198e-05
73	0x2d5f6616	1.269875e-11
74	0x2d83cff3	1.4985324e-11
75	0x2e03d337	2.9973548e-11
76	0x2c9ecbab	4.5132418e-12
77	0x39948e54	0.00028334802
78	0x38f087d2	0.0001146939
79	0x39082fb5	0.00012987743
80	0x2eaa4952	7.743729e-11
81	0x2a14d8c8	1.3220252e-13
82	0x370af5b2	8.282646e-06
83	0x39304ffe	0.00016814467
84	0x3949151d	0.00019176719
85	0x375e796e	1.3260504e-05
86	0x38394c95	4.417876e-05
87	0x2d4d8acd	1.1683721e-11
88	0x2a79e6f4	2.219577e-13
89	0x386004ba	5.3410164e-05
90	0x2cda9743	6.212726e-12
91	0x2b6c3906	8.392318e-13
92	0x2d0d76fc	8.041342e-12
93	0x38e8c782	0.00011099783
94	0x38b6b9a6	8.713016e-05
95	0x36bbafb1	5.5934875e-06
96	0x2ad0205c	3.6970676e-13
97	0x28d46c6e	2.3583752e-14
98	0x299d9560	6.998113e-14
99	0x3961c125	0.00021529624
100	0x38852694	6.34912e-05
101	0x394389ec	0.00018648029
102	0x392d247d	0.00016512159
103	0x395e847c	0.00021220924
104	0x3826c578	3.976139e-05
105	0x2de95e62	2.6530948e-11
106	0x38ddd66e	0.00010578042
107	0x3038834d	6.71254e-10
108	0x3871882d	5.75857e-05
109	0x2d8c5215	1.5952609e-11
110	0x2f4ef5b1	1.8822878e-10
111	0x2c69ca8e	3.3223732e-12
112	0x2dfe6666	2.892193e-11
113	0x2952bfdf	4.679579e-14
114	0x2dafc215	1.9981386e-11
115	0x394cdc62	0.00019537055
116	0x310089d0	1.8704789e-09
117	0x39139020	0.00014072703
118	0x2e07fa64	3.0917838e-11
119	0x2d77ae15	1.40789784e-11
120	0x2fdcf0bf	4.0188827e-10
121	0x2947342c	4.4232128e-14
122	0x33154504	3.4754535e-08
123	0x2aec4498	4.1969618e-13
124	0x3880bbe2	6.1385115e-05
125	0x2d873a84	1.537371e-11
126	0x3838fb05	4.41028e-05
127	0x3884cdf5	6.332613e-05

exp_avg f4 [128, 128]
0	0x00000000	0.0
1	0x80000000	-0.0
2	0x00000000	0.0
3	0x80000000	-0.0
4	0x00000000	0.0
5	0x00000000	0.0
6	0x80000000	-0.0
7	0x00000000	0.0
8	0x80000000	-0.0
9	0x80000000	-0.0
10	0x80001298	-6.67e-42
11	0x80000000	-0.0
12	0x80000000	-0.0
13	0x00000000	0.0
14	0x00000000	0.0
15	0x0001211c	1.03713e-40
16	0x80000000	-0.0
17	0x00000000	0.0
18	0x80000000	-0.0
19	0x80000000	-0.0
20	0x00000000	0.0
21	0x00000000	0.0
22	0x00000003	4e-45
23	0x80000000	-0.0
24	0x80000000	-0.0
25	0x00000000	0.0
26	0x80000000	-0.0
27	0x80000000	-0.0
28	0x8ca0a30d	-2.4750036e-31
29	0x80000000	-0.0
30	0x00000000	0.0
31	0x80000000	-0.0
32	0x00000000	0.0
33	0x00000000	0.0
34	0x00000000	0.0
35	0x80000000	-0.0
36	0x00000000	0.0
37	0x80000000	-0.0
38	0x80000000	-0.0
39	0x00000000	0.0
40	0x80000000	-0.0
41	0x00000000	0.0
42	0x80000000	-0.0
43	0x00000000	0.0
44	0x00000000	0.0
45	0x80000000	-0.0
46	0x80000000	-0.0
47	0x00000000	0.0
48	0x80000000	-0.0
49	0x80000000	-0.0
50	0x00000000	0.0
51	0x80000000	-0.0
52	0x80000000	-0.0
53	0x00000000	0.0
54	0x80000000	-0.0
55	0x00000000	0.0
56	0x80000000	-0.0
57	0x80000000	-0.0
58	0x00000000	0.0
59	0x80000000	-0.0
60	0x80000000	-0.0
61	0x80000000	-0.0
62	0x80000000	-0.0
63	0x00000000	0.0
64	0x00000000	0.0
65	0x00000000	0.0
66	0x00000000	0.0
67	0x00000000	0.0
68	0x80000000	-0.0
69	0x80000000	-0.0
70	0x80000000	-0.0
71	0x80000000	-0.0
72	0x00000000	0.0
73	0x80000000	-0.0
74	0x80000000	-0.0
75	0x00000000	0.0
76	0x00000000	0.0
77	0x80000000	-0.0
78	0x00000010	2.2e-44
79	0x00000000	0.0
80	0x80000000	-0.0
81	0x00000000	0.0
82	0x80000000	-0.0
83	0x80000000	-0.0
84	0x00000000	0.0
85	0x00000000	0.0
86	0x00000000	0.0
87	0x80000000	-0.0
88	0x00000000	0.0
89	0x00d8613a	1.9871345e-38
90	0x00000000	0.0
91	0x80000000	-0.0
92	0x00000000	0.0
93	0x80000000	-0.0
94	0x80000000	-0.0
95	0x00000000	0.0
96	0x80000000	-0.0
97	0x80000000	-0.0
98	0x80000000	-0.0
99	0x80000000	-0.0
100	0x00000000	0.0
101	0x80000000	-0.0
102	0x00000000	0.0
103	0x00000000	0.0
104	0x80000000	-0.0
105	0x80000000	-0.0
106	0x80000000	-0.0
107	0x80000000	-0.0
108	0x00000000	0.0
109	0x80000000	-0.0
110	0x80000000	-0.0
111	0x80000000	-0.0
112	0x80000000	-0.0
113	0x00000000	0.0
114	0x00000000	0.0
115	0x80000000	-0.0
116	0x80000000	-0.0
117	0x00000000	0.0
118	0x00000000	0.0
119	0x00000000	0.0
120	0x80000000	-0.0
121	0x00000000	0.0
122	0x00000000	0.0
123	0x00000000	0.0
124	0x00000019	3.5e-44
125	0x80000000	-0.0
126	0x80000000	-0.0
127	0x80000000	-0.0
128	0x00000000	0.0
129	0x9ee6480e	-2.4381998e-20
130	0x00000000	0.0
131	0x80000000	-0.0
132	0x80000000	-0.0
133	0x00000000	0.0
134	0x9971cf27	-1.2501242e-23
135	0x80000000	-0.0
136	0x9c0778f6	-4.482409e-22
137	0x00000000	0.0
138	0xa1e1726e	-1.5276882e-18
139	0x00000000	0.0
140	0x80000000	-0.0
141	0x00000000	0.0
142	0x0001d802	1.69324e-40
143	0xa226d008	-2.2607326e-18
144	0x9d4c0691	-2.700257e-21
145	0x00000000	0.0
146	0x00000000	0.0
147	0x00000000	0.0
148	0x80000000	-0.0
149	0x80000000	-0.0
150	0x9ed97899	-2.3025647e-20
151	0x80000000	-0.0
152	0x95eb5598	-9.505079e-26
153	0x00000000	0.0
154	0x9c175a04	-5.007805e-22
155	0x00000000	0.0
156	0xa647dd16	-6.934162e-16
157	0x80000004	-6e-45
158	0x00000000	0.0
159	0x80000000	-0.0
160	0x90327327	-3.519302e-29
161	0x80000000	-0.0
162	0x80000000	-0.0
163	0x9dfcac3c	-6.688193e-21
164	0x00000000	0.0
165	0x80000000	-0.0
166	0x00000000	0.0
167	0x00000000	0.0
168	0x9ec329e3	-2.0663752e-20
169	0x00000000	0.0
170	0x00000000	0.0
171	0x80000000	-0.0
172	0x80000000	-0.0
173	0x00000000	0.0
174	0x92143aa4	-4.6772846e-28
175	0x80000000	-0.0
176	0x00000000	0.0
177	0x9f58e93e	-4.5932713e-20
178	0x00000000	0.0
179	0x80000000	-0.0
180	0x9ac43cf6	-8.116219e-23
181	0x8e6a91df	-2.8912961e-30
182	0x9bd32e0f	-3.4936787e-22
183	0x80000000	-0.0
184	0x80000000	-0.0
185	0x80000000	-0.0
186	0x00000000	0.0
187	0x00000000	0.0
188	0x9dfed79a	-6.7456167e-21
189	0x9dea210e	-6.197346e-21
190	0x80000000	-0.0
191	0x80000000	-0.0
192	0x80000000	-0.0
193	0x80000000	-0.0
194	0x97b40812	-1.1634265e-24
195	0x89ac1c7e	-4.1434288e-33
196	0x00000000	0.0
197	0x80000000	-0.0
198	0x93af6a1d	-4.4280846e-27
199	0x80000001	-1e-45
200	0x00000000	0.0
201	0x80000000	-0.0
202	0x80000000	-0.0
203	0x80000000	-0.0
204	0x00000000	0.0
205	0x00000000	0.0
206	0xa0d2961c	-3.5674718e-19
207	0x8000001e	-4.2e-44
208	0x80000000	-0.0
209	0x00000000	0.0
210	0x80000000	-0.0
211	0x9aaf7674	-7.2569675e-23
212	0x00000000	0.0
213	0x00000000	0.0
214	0x8f442240	-9.6701424e-30
215	0x80000000	-0.0
216	0x00000000	0.0
217	0xa3aba554	-1.8609876e-17
218	0x00000000	0.0
219	0x80000000	-0.0
220	0x00000000	0.0
221	0x93712847	-3.0438335e-27
222	0x969a6414	-2.49432e-25
223	0x00000000	0.0
224	0x80000000	-0.0
225	0x80000000	-0.0
226	0x80000000	-0.0
227	0x9019db0d	-3.034268e-29
228	0x92270485	-5.270148e-28
229	0x978bf459	-9.044346e-25
230	0x815814b7	-3.9687797e-38
231	0x00000000	0.0
232	0x00000000	0.0
233	0x00000000	0.0
234	0x00000000	0.0
235	0x00000000	0.0
236	0x94c933e7	-2.0316285e-26
237	0x00000000	0.0
238	0x00000000	0.0
239	0x00000000	0.0
240	0x80000000	-0.0
241	0x00000000	0.0
242	0x80000000	-0.0
243	0x00000000	0.0
244	0x80000000	-0.0
245	0x90bb6f1a	-7.3929674e-29
246	0x00000000	0.0
247	0x80000000	-0.0
248	0x00000000	0.0
249	0x80000000	-0.0
250	0x80000000	-0.0
251	0x00000000	0.0
252	0xa1af0fce	-1.1862645e-18
253	0x80000000	-0.0
254	0xa04da25b	-1.7417894e-19
255	0x9636126f	-1.470766e-25
